PARCIAL2/gesture_model_0.95.tflite (tflite, 135040 bytes, 8 tensors)

sequential_36/dense_137/BiasAdd/ReadVariableOp f4 [6]
0	0xbe892661	-0.26787093
1	0x3d9d510d	0.07681475
2	0x3c63a226	0.01389364
3	0x3e51a489	0.20472921
4	0xbd54c95c	-0.051949844
5	0x3cc7ce82	0.024390463

sequential_36/dense_136/BiasAdd/ReadVariableOp f4 [16]
0	0x39e86683	0.00044326865
1	0x00000000	0.0
2	0x00000000	0.0
3	0xbd9d2e9c	-0.07674906
4	0x00000000	0.0
5	0x00000000	0.0
6	0xbb5b625b	-0.0033475372
7	0x3b6c7286	0.0036079003
8	0xbc3dc28e	-0.01158203
9	0x3c5a713b	0.01333266
10	0x3d8a6525	0.06757573
11	0x00000000	0.0
12	0x00000000	0.0
13	0x3e2fcf67	0.17168961
14	0x3dbb96f6	0.09159653
15	0xbd988675	-0.07447521

sequential_36/dense_135/BiasAdd/ReadVariableOp f4 [32]
0	0xb9e7b2dc	-0.00044193014
1	0xbd69a211	-0.057039324
2	0xbc5fae5e	-0.013652412
3	0x3c09ba51	0.008406238
4	0x3d429d55	0.047513325
5	0xbc5d3840	-0.013502181
6	0x00000000	0.0
7	0x3d1a502e	0.03767412
8	0xbc78dcd7	-0.015189371
9	0xbb5dfb1a	-0.0033871592
10	0x00000000	0.0
11	0x3d4e0084	0.05029346
12	0xbabf16c4	-0.0014578928
13	0x00000000	0.0
14	0xbc959828	-0.01826103
15	0xbb2622a2	-0.0025350233
16	0xbd1ca313	-0.038241457
17	0x3da9a876	0.082840845
18	0x3500b089	4.794061e-07
19	0x3a284b0a	0.0006419873
20	0xb9daec28	-0.0004175615
21	0xbcd624fc	-0.026140682
22	0xb90fe585	-0.00013723045
23	0x3d15bfca	0.036559857
24	0x3d017c2f	0.03161257
25	0x00000000	0.0
26	0x00000000	0.0
27	0x00000000	0.0
28	0x3d1b3183	0.037889015
29	0xbc4c635a	-0.012474859
30	0x39129f31	0.00013982948
31	0xbd4b2e56	-0.049604736

sequential_36/dense_134/BiasAdd/ReadVariableOp f4 [64]
0	0x3c0eab9d	0.008707908
1	0xbba603c4	-0.005066367
2	0x00000000	0.0
3	0x3bafc3a2	0.0053638974
4	0x00000000	0.0
5	0x00000000	0.0
6	0x00000000	0.0
7	0x39f7aa14	0.0004723823
8	0xbc12dfb2	-0.008964466
9	0x3c2a7899	0.010404729
10	0x3d6646e5	0.056219954
11	0x00000000	0.0
12	0x3bfeb9e5	0.007773625
13	0x00000000	0.0
14	0xbc9b93bc	-0.018991344
15	0xbd424e6d	-0.047438074
16	0xbbae7b81	-0.0053247814
17	0x00000000	0.0
18	0x00000000	0.0
19	0x3d3ef944	0.046624437
20	0x00000000	0.0
21	0xbbf733a0	-0.007543996
22	0x00000000	0.0
23	0x00000000	0.0
24	0x00000000	0.0
25	0xba22d86b	-0.00062120584
26	0x00000000	0.0
27	0x00000000	0.0
28	0x00000000	0.0
29	0x00000000	0.0
30	0xbcfb96c2	-0.030711535
31	0xbb2a2ea4	-0.0025967741
32	0x3c622f73	0.013805258
33	0x3d07985b	0.033104282
34	0x3cd71bd1	0.026258381
35	0x3d1f7e94	0.038939074
36	0x3d85e7ad	0.06538329
37	0x00000000	0.0
38	0xbc915e1c	-0.01774507
39	0x3d91ade1	0.07113243
40	0x00000000	0.0
41	0xbc5f9e28	-0.013648547
42	0x00000000	0.0
43	0xba43f9a9	-0.0007475862
44	0x00000000	0.0
45	0xbbcd9d02	-0.0062748203
46	0xbcdd03f2	-0.02697942
47	0xbc83d42b	-0.01609238
48	0xbce1b017	-0.027549786
49	0x00000000	0.0
50	0x3d1e77bd	0.03868841
51	0x3d05e1d8	0.032686085
52	0x00000000	0.0
53	0xbc2df0d1	-0.010616497
54	0x3c87e429	0.016588287
55	0x00000000	0.0
56	0xbbda0c23	-0.006654279
57	0x00000000	0.0
58	0xba2510b3	-0.0006296739
59	0xbc6846a4	-0.014176998
60	0x3c82c373	0.015962338
61	0xbd39d2ae	-0.045366935
62	0x00000000	0.0
63	0xbcaf121c	-0.02137094

sequential_36/dense_134/MatMul f4 [64, 474]
0	0x3dd5a98a	0.10432728
1	0xbc13dd54	-0.009024937
2	0xbc29e0f5	-0.010368575
3	0x3da236b7	0.07920592
4	0xbdaac24e	-0.08337842
5	0x3cbe0a80	0.023198366
6	0x3d78a5ab	0.06070487
7	0xbd7e1524	-0.06203188
8	0x3e10d7a6	0.14144763
9	0x3dde96ad	0.10868583
10	0x3d8023d8	0.06256837
11	0x3dbf5602	0.093425766
12	0x3d468566	0.048467062
13	0xbd6ed224	-0.058305874
14	0x3e17c029	0.14819397
15	0xbc800009	-0.015625017
16	0xbd37c5e2	-0.04486645
17	0xbd0ecc76	-0.034862958
18	0x3d3bf918	0.04589185
19	0xbd55d4a7	-0.052204754
20	0x3db9dc1b	0.09075185
21	0xbd82fd9e	-0.0639603
22	0xbb793924	-0.0038028443
23	0x3d6c79b9	0.05773327
24	0x3bdd0085	0.0067444467
25	0xbe032fec	-0.1281125
26	0x3dc41574	0.09574404
27	0x3d8b235a	0.06793852
28	0x3d247e85	0.04015972
29	0xbd40cb7b	-0.047069054
30	0xbbca655a	-0.006176633
31	0x3d0d5d9c	0.0345131
32	0x3d781952	0.060571022
33	0x3d814f2c	0.06313929
34	0x3d6ed990	0.058312953
35	0xbda200d2	-0.07910313
36	0xbd69c0bd	-0.057068575
37	0xbe06a662	-0.13149408
38	0x3d22ab65	0.039714236
39	0x3d9789cb	0.07399329
40	0x3dac526a	0.08414157
41	0x3ce7ab61	0.028279962
42	0x3da5bcf5	0.08092681
43	0xbd4f9db9	-0.050687525
44	0x3c351866	0.01105318
45	0xbd66dc82	-0.056362636
46	0x3d854880	0.06507969
47	0xbd826514	-0.06366935
48	0x3db3618d	0.08758841
49	0xbd71529b	-0.05891667
50	0xbd7069b8	-0.05869457
51	0x3dff1fae	0.12457214
52	0x3c09e733	0.008416939
53	0xbdc3096a	-0.0952328
54	0xbba6141f	-0.0050683166
55	0xbdf2d7f4	-0.11857596
56	0x3de6c516	0.1126806
57	0x3da4cde3	0.08047082
58	0xbd82173d	-0.063520886
59	0x3c49da58	0.012320124
60	0xbd396013	-0.04525764
61	0xbd286126	-0.041108273
62	0x3db4618f	0.0880767
63	0x3d150567	0.036382105
64	0xbdbd659a	-0.092478946
65	0x3d09699e	0.03354799
66	0xbd1513ee	-0.03639596
67	0xbdae1964	-0.085009366
68	0x3da099c3	0.07841828
69	0xbd8afbf6	-0.06786339
70	0xbb6c2eb2	-0.0036038575
71	0xbb821b85	-0.0039705657
72	0x3d1ff8bf	0.039055582
73	0xbd6b6c2f	-0.05747622
74	0xbd12b652	-0.035818405
75	0x3d5f399c	0.0544983
76	0xbd484919	-0.048897836
77	0xbd3b124f	-0.045671757
78	0xbd822c8a	-0.063561514
79	0xbd8a553a	-0.06754537
80	0x3d962be5	0.07332591
81	0x3ce31d57	0.027723951
82	0x3d33c11b	0.04388533
83	0x3ae282fe	0.001728147
84	0x3d59f680	0.053213596
85	0x3d24e2b0	0.04025525
86	0xbdaa1c47	-0.08306175
87	0x3cfc20a6	0.030777287
88	0xbc937b63	-0.018003171
89	0xbdce1431	-0.10062445
90	0xbcd6c008	-0.026214615
91	0x3ccaaf05	0.024741659
92	0xbbd6106f	-0.0065327208
93	0xbc99203b	-0.018692126
94	0xbd919dda	-0.07110186
95	0x3d2fc190	0.042909205
96	0x3dc76ece	0.09737931
97	0xbe010b59	-0.12601985
98	0x3d30d2a5	0.043169636
99	0xbd9016dc	-0.0703561
100	0xbc6cf8a8	-0.014463581
101	0x3cfda3ec	0.030961953
102	0x3d704b44	0.05866553
103	0xbd12b8e3	-0.035820853
104	0x3a72d419	0.00092631724
105	0x3bb55c6e	0.0055347
106	0xbdc1c645	-0.09461645
107	0x3db76ce7	0.08956318
108	0xbd538163	-0.051637065
109	0x3bd2cf31	0.0064333905
110	0xbc6582d0	-0.014008239
111	0x3d7c71d4	0.061631992
112	0xbccdaf92	-0.025108133
113	0xbdd80899	-0.10548515
114	0x3dc06257	0.09393757
115	0xbe063c46	-0.1310893
116	0xbcae7f98	-0.021301076
117	0xbd5ee291	-0.05441529
118	0xbdc29a2f	-0.095020644
119	0xbdcc3557	-0.09971111
120	0xbba0d54d	-0.00490824
121	0xbdce72e0	-0.100805044
122	0x3d54954d	0.051900197
123	0xbd16da39	-0.036829207
124	0x3dac5615	0.08414856
125	0xbd94ed14	-0.072717816
126	0xbb47dccc	-0.0030496595
127	0xbe030daf	-0.12798189
128	0xbd98a662	-0.0745361
129	0x3d161b51	0.036647145
130	0x3d11ae11	0.035566393
131	0x3c7f9478	0.015599363
132	0x3d4cc081	0.049988274
133	0xbd805d15	-0.06267754
134	0xbdd9d08a	-0.10635479
135	0xbd069db1	-0.03286523
136	0x3dcab71d	0.09898207
137	0x3db26e05	0.08712391
138	0xbdb9a82a	-0.09065278
139	0xbdc85881	-0.09782506
140	0xbdd017cd	-0.1016079
141	0x3d0f19ad	0.034936596
142	0x3d48b6b6	0.04900237
143	0xbd5100d9	-0.0510262
144	0x3d94962e	0.07255207
145	0xbd60161f	-0.054708596
146	0x3d08e47e	0.033421032
147	0x3d1f34ea	0.038868822
148	0xbd8946e5	-0.06702975
149	0x3d391cac	0.04519336
150	0x3c2f58d8	0.010702334
151	0x3d8e6138	0.06952137
152	0x3d453e75	0.048155267
153	0xbadcc022	-0.0016841928
154	0xbcc0a73e	-0.023517247
155	0xbd920ba6	-0.07131128
156	0x3d03d5ba	0.032186247
157	0xbd2fbdad	-0.0429055
158	0xbd1c9f2f	-0.038237747
159	0x3d42827d	0.047487725
160	0x3d8ea343	0.069647335
161	0xbdda3f78	-0.10656637
162	0xbdef25a8	-0.11677104
163	0xbdc21dc0	-0.094783306
164	0x3d90374c	0.07041797
165	0x3c6646de	0.014054982
166	0x3dd83013	0.105560444
167	0x3c39a2f5	0.011330356
168	0x3d108c96	0.035290323
169	0xbd886775	-0.06660358
170	0x3d632dd5	0.05546363
171	0xbd4d3ca2	-0.050106652
172	0xba63a764	-0.0008684306
173	0x3db126ad	0.08649955
174	0xbd71f379	-0.059070084
175	0xbbcbf539	-0.006224301
176	0x3da470e1	0.080293424
177	0xbddaa1c0	-0.106753826
178	0x3d6cd50b	0.05782036
179	0xbdc68607	-0.096935324
180	0x3c9cfd75	0.019163826
181	0x3dad31ab	0.08456739
182	0xbd03c13b	-0.0321667
183	0x3c8c9d6d	0.01716491
184	0x3dcfe5bb	0.101512395
185	0xbd9ae3bf	-0.0756297
186	0xbcb5d595	-0.02219657
187	0xbbba15c9	-0.0056788665
188	0x3e002c33	0.1251686
189	0xbd94d371	-0.07266892
190	0x3da6993e	0.081346974
191	0x3d8a90e2	0.067659155
192	0x3dc341fe	0.095340714
193	0x3cc08f41	0.023505809
194	0x3dad1427	0.084511094
195	0xbe02389f	-0.12716912
196	0x3d265ebf	0.0406177
197	0xbd9eecd3	-0.077600144
198	0x3bd13983	0.0063850298
199	0xbda1507a	-0.07876678
200	0x3c619a66	0.013769722
201	0xbde5aab2	-0.11214198
202	0xbda6772b	-0.08128198
203	0xbdb37f10	-0.087644696
204	0x3d3210fc	0.04347323
205	0xbd69986f	-0.057030138
206	0x3d0a32fc	0.03374003
207	0x3cdd9bd6	0.027051847
208	0xbd148934	-0.03626366
209	0x3c91fef0	0.017821759
210	0x3d8c7c43	0.068596385
211	0x3dbe5967	0.09294396
212	0xbd78bdd9	-0.060727928
213	0xbdb1eeca	-0.086881235
214	0xbca99cd1	-0.020704659
215	0xbd97aa61	-0.07405544
216	0xbcff1b9b	-0.031141093
217	0x3da2517d	0.07925699
218	0x3bf8b3ec	0.0075898077
219	0xbdd72fa1	-0.10507131
220	0xbdb145e0	-0.08655906
221	0x3d47dca0	0.04879439
222	0xbd8e0b55	-0.06935755
223	0x3b99245d	0.0046735243
224	0xbd9fd992	-0.0780517
225	0xbdca18b2	-0.098679915
226	0xbc629c02	-0.0138311405
227	0x3dd68f15	0.104765095
228	0xbd8d1bae	-0.06890045
229	0x3db3859f	0.087657206
230	0x3d51ad87	0.05119088
231	0xbd34523b	-0.044023734
232	0x38553ca0	5.083962e-05
233	0xbd871e1b	-0.06597539
234	0xbdb475fe	-0.08811568
235	0xbd567164	-0.05235423
236	0x3dc85ee5	0.09783725
237	0xbd6aaebb	-0.057295542
238	0xbd96ab00	-0.073568344
239	0xbdca6407	-0.0988236
240	0xbcbcb5da	-0.023035932
241	0x3cba2b6c	0.022725783
242	0x3cd7ed6d	0.02635833
243	0xbdea844d	-0.114510156
244	0x3d1ec950	0.038766205
245	0xbdacf83d	-0.08445785
246	0x3dd295cc	0.10282478
247	0x3d86c8f6	0.06581299
248	0x3caf2802	0.021381382
249	0xbd36fe29	-0.04467598
250	0xbd8bef78	-0.068327844
251	0xbdb4424f	-0.0880171
252	0xbd6c7722	-0.0577308
253	0x3d8b5e69	0.06805117
254	0x3e2ddf71	0.16979767
255	0x3d897197	0.06711119

sequential_36/dense_135/MatMul f4 [32, 64]
0	0xbe5c2496	-0.21498331
1	0xbe39477f	-0.1809368
2	0x3e2e3350	0.17011762
3	0xbe0d10d4	-0.1377595
4	0xbe6d1088	-0.23150837
5	0x3cae4780	0.021274328
6	0xbe04f6e8	-0.12984812
7	0xbe3dfecc	-0.18554229
8	0xbe59ae48	-0.2125789
9	0x3e471019	0.19439735
10	0xbe2fed2c	-0.17180318
11	0x3e18e3a8	0.14930594
12	0x3d8a89db	0.06764575
13	0xbe7c047c	-0.24611086
14	0xbe1ea198	-0.1549133
15	0xbd637279	-0.05552909
16	0x3e5e579a	0.21713105
17	0x3d295c00	0.041347504
18	0x3de9f930	0.11424482
19	0xbe03025e	-0.12793872
20	0x3e6410f8	0.22272098
21	0xbe2975c5	-0.16548832
22	0x3df9c520	0.12195802
23	0xbdbf7230	-0.093479514
24	0x3df7cac8	0.12099224
25	0xbe4ab7ec	-0.19796723
26	0xbd973250	-0.07382643
27	0xbe3d1ad4	-0.18467265
28	0xbd9e3f88	-0.077269614
29	0x3dfa1650	0.12211287
30	0x3e3b4e71	0.18291642
31	0xbd9c1eb2	-0.07623042
32	0xbe18fd90	-0.14940476
33	0xbe011d20	-0.12608767
34	0xbdcb7e2a	-0.09936173
35	0xbdae0a62	-0.08498074
36	0xbdd2ec48	-0.10298973
37	0x3e114bfc	0.14189142
38	0xbdad4eec	-0.08462319
39	0xbe1bc744	-0.15212733
40	0x3d7c8eb0	0.061659515
41	0x3d705bc6	0.058681272
42	0x3e35368c	0.17696589
43	0xbdafbec8	-0.085813105
44	0x3c99a440	0.018755078
45	0xbe3f39cb	-0.1867439
46	0x3e50ae47	0.20378982
47	0x3cb30f93	0.021858012
48	0xbd7c55fd	-0.061605442
49	0x3d64e7e0	0.055885196
50	0x3d0be3cf	0.034152802
51	0xbe393a04	-0.18088537
52	0x3cc88620	0.024478018
53	0xbd8f6498	-0.070016086
54	0xbe492592	-0.19643238
55	0xbda1c7c0	-0.078994274
56	0x3e7924ba	0.24330416
57	0xbe137658	-0.14400613
58	0xbd0e8810	-0.034797728
59	0xbe343fc7	-0.17602454
60	0xbcc4135a	-0.023935009
61	0x3e440564	0.19142681
62	0x3da4f5a8	0.08054668
63	0x3e1ef294	0.15522224
64	0x3e27e6b6	0.16396603
65	0xbdf782f6	-0.12085526
66	0x3e62897c	0.22122759
67	0x3e46e824	0.19424492
68	0x3bd3a780	0.0064591765
69	0xbdd70b28	-0.10500175
70	0xbe5becd8	-0.21477067
71	0x3c3966f8	0.011316054
72	0x3e5effc4	0.21777254
73	0xbdf5dbe2	-0.1200483
74	0xbca0cc8c	-0.019628786
75	0xbdb56c28	-0.0885852
76	0x3d93b74e	0.07212697
77	0xbc682c80	-0.014170766
78	0xbd2adcac	-0.041714355
79	0x3eb7f9df	0.35932824
80	0x3e7535f7	0.23946367
81	0x3e7f5148	0.2493335
82	0xbe592220	-0.21204424
83	0xbe02c0a2	-0.12768796
84	0xbe6eed38	-0.2333268
85	0x3e918b0f	0.28426406
86	0xbe71f0d0	-0.23627019
87	0x3dc7a4f8	0.09748262
88	0x3e77b1fc	0.2418899
89	0xbc055223	-0.008137259
90	0x3d9dd2b0	0.07706201
91	0xbc34aec0	-0.011027992
92	0xbdcd4ab0	-0.10024011
93	0x3d915778	0.070967615
94	0xbdffb1b1	-0.12485064
95	0x3dd1a2b7	0.102361135
96	0xbe7691cf	-0.24079059
97	0xbe36160d	-0.17781849
98	0xbeb0c315	-0.34523836
99	0x3e54f32d	0.20795889
100	0xbe50ff48	-0.20409882
101	0x3d54e250	0.05197364
102	0x3e94001d	0.28906336
103	0xbec2d230	-0.38050985
104	0x3e553434	0.20820695
105	0x3d9f9161	0.07791401
106	0x3d3ac200	0.04559517
107	0x3e250402	0.1611481
108	0x3e30749c	0.17231983
109	0xbc927d0a	-0.017881889
110	0x3e7f80fa	0.24951544
111	0xbd9fa04e	-0.077942476
112	0x3e6e3290	0.23261476
113	0xbe7a2684	-0.24428755
114	0x3d0c730f	0.034289416
115	0xbe920501	-0.28519443
116	0xbdbfd938	-0.09367603
117	0x3d5ebbee	0.054378442
118	0x3dc98b89	0.09841067
119	0x3e0b74e0	0.13618803
120	0xbcc71174	-0.024300314
121	0xbe3fa0b0	-0.18713641
122	0x3dffe37c	0.12494561
123	0x3e885278	0.2662542
124	0xbe815cbd	-0.25266066
125	0x3ece14b3	0.40250167
126	0x3de39bb0	0.111136794
127	0x3d97ddb4	0.074153334
128	0xbd1d070e	-0.038336806
129	0x3e5a3bce	0.21311876
130	0xbd444fc0	-0.047927618
131	0xbd1d5365	-0.03840961
132	0x3da6d420	0.081459284
133	0x3c6bc8c0	0.014391124
134	0xbdd72378	-0.10504812
135	0xbcf5a2b9	-0.029984819
136	0x3e5dd22b	0.21662204
137	0x3dd53a8a	0.10411556
138	0xbe7f3898	-0.24923933
139	0xbe390a38	-0.18070304
140	0x3e839408	0.25698876
141	0xbe5d6ea4	-0.21624237
142	0x3de6d420	0.112709284
143	0xb99c1145	-0.00029767505
144	0xbe41a6a9	-0.18911232
145	0xbdc00858	-0.093765914
146	0xbbea5f00	-0.007152438
147	0xbe773ba2	-0.24143842
148	0x3e3c0e34	0.18364793
149	0x3d5867a2	0.052833207
150	0x3e6fc870	0.23416305
151	0x3ddec168	0.10876733
152	0xbcea0280	-0.028565645
153	0x3e67c906	0.22635278
154	0xbdd9ad90	-0.106288075
155	0x3d2ef930	0.042718112
156	0xbe299928	-0.1656233
157	0x3d0a38d0	0.033745587
158	0x3e00d368	0.12580645
159	0xbe73959d	-0.23787542
160	0x3c4629d8	0.012094937
161	0xbccabcf9	-0.024748312
162	0x3dd2e430	0.102974296
163	0xbd34bc7e	-0.044125073
164	0xbebbcf8a	-0.36681777
165	0x3cb45f00	0.022017956
166	0x3e477ed5	0.19481976
167	0xbea75d32	-0.3268829
168	0xbd117330	-0.035510242
169	0x3d697542	0.05699659
170	0xbda67ba8	-0.08129054
171	0x3da147fc	0.07875058
172	0x3e7f06c0	0.24904919
173	0x3d6e3716	0.058158003
174	0xbbe31f5b	-0.006931228
175	0x3e815ff4	0.2526852
176	0x3e4b0d30	0.1982925
177	0x3e329088	0.17437947
178	0xbe7452e0	-0.2385974
179	0xbd2cccec	-0.042187616
180	0xbdfb9dc0	-0.12285948
181	0xbe814109	-0.2524493
182	0xbccdc976	-0.025120478
183	0xbe13cc8c	-0.14433497
184	0x3d2770f4	0.040879205
185	0xbe32039c	-0.1738419
186	0x3e1d91e4	0.15387684
187	0x3e97055e	0.29496282
188	0xbdfa80fa	-0.122316316
189	0x3dcc461b	0.09974309
190	0x3cd3c180	0.025849104
191	0x3e9498be	0.29022783
192	0x3d9705e2	0.07374169
193	0xbd73325e	-0.059374206
194	0xbde21c78	-0.11040586
195	0x3d5ebe55	0.054380734
196	0x3e20fdd4	0.15721828
197	0xbdbc4888	-0.09193522
198	0xbe151754	-0.1455968
199	0xbe88a8e5	-0.26691356
200	0xbcc2a356	-0.023759525
201	0xbd9c3c2d	-0.07628665
202	0x3e83eed6	0.25768155
203	0xbcb68580	-0.022280455
204	0x3ea2a0a9	0.317632
205	0xbd9a71f0	-0.07541263
206	0xbcaa694a	-0.020802159
207	0xbd8b41d9	-0.06799669
208	0x3d94ed67	0.072718434
209	0x3dba08b8	0.09083694
210	0xbda8bdc8	-0.08239323
211	0x3dbdd2ed	0.092687465
212	0x3d397d40	0.045285463
213	0x3dafbc39	0.085808225
214	0x3dfe3320	0.12412095
215	0xbe0d2700	-0.13784409
216	0x3e6d4400	0.23170471
217	0xbce40436	-0.02783404
218	0xbdaca160	-0.08429217
219	0x3df3eae0	0.11910033
220	0xbd46fcd0	-0.048580945
221	0xbe566a98	-0.209391
222	0x3e8893ba	0.26675206
223	0x3e3aa9cb	0.18228833
224	0xbd0f0b19	-0.034922693
225	0x3e145a30	0.14487529
226	0xbe1fbf8c	-0.15600413
227	0xbd30a1a9	-0.04312292
228	0xbe546493	-0.20741491
229	0x3cefcd20	0.029272616
230	0x3df423f9	0.11920924
231	0xbe6d0e46	-0.23149976
232	0xbe4e8e58	-0.20171487
233	0xbe4030b7	-0.18768583
234	0x3c81f460	0.015863597
235	0xbdd61bae	-0.10454498
236	0xbe7d4d98	-0.24736631
237	0xbe16608a	-0.14685264
238	0xbe132e56	-0.14373145
239	0x3e0c155b	0.13680021
240	0xbc968251	-0.018372687
241	0x3e1f192c	0.15536946
242	0x3d26d934	0.040734485
243	0xbdca5f1f	-0.09881424
244	0x3daefc90	0.08544266
245	0xbe0744e8	-0.1320988
246	0x3df20a6e	0.118183956
247	0xbe765f5c	-0.24059814
248	0xbd0be16f	-0.034150537
249	0xbd699990	-0.057031214
250	0x3e1380a5	0.14404543
251	0x3e857b79	0.26070765
252	0xbe9976f5	-0.2997357
253	0x3e32ad1b	0.17448847
254	0xbd0fd9d0	-0.03511983
255	0xbe3a8529	-0.18214859

sequential_36/dense_136/MatMul f4 [16, 32]
0	0xbe51fa08	-0.20505536
1	0x3ea43e6d	0.32078877
2	0xbea475ca	-0.32121116
3	0x3e55916f	0.2085626
4	0x3e975271	0.29555085
5	0x3f24f489	0.6443563
6	0x3bf1d1c0	0.0073797405
7	0xbe4ddc26	-0.20103511
8	0xbe70a6ff	-0.23501204
9	0x3e3987d8	0.18118227
10	0x3e4e2f8e	0.20135328
11	0xbdd6e898	-0.104935825
12	0xbe983da2	-0.29734522
13	0x3d35f8b8	0.04442665
14	0xbe887682	-0.26652914
15	0xbdcb5df4	-0.099300295
16	0x3e8ef8e4	0.27924263
17	0x3d7f4cf8	0.062329262
18	0xbe442b6e	-0.19157192
19	0x3e790b6d	0.24320765
20	0xbd4a8603	-0.04944421
21	0xbe8a82d4	-0.2705294
22	0x3c2a4789	0.010393032
23	0x3eb9bbe9	0.36276177
24	0xbed5a1f3	-0.4172512
25	0x3eaa0677	0.33208057
26	0x3e7c8c26	0.24662837
27	0x3e883b3d	0.26607695
28	0xbd1a3267	-0.037645724
29	0x3ee73c54	0.45163214
30	0x3bd63eaf	0.006538234
31	0xbea20888	-0.31647134
32	0xbe23ac35	-0.1598366
33	0xbe6302e0	-0.22169065
34	0x3ea5280f	0.32257125
35	0xbeaa59c0	-0.332716
36	0xbe313b43	-0.17307763
37	0xbdb6eabc	-0.08931491
38	0x3e9c17e3	0.30486974
39	0xbe9da791	-0.30791906
40	0xbe7d50fc	-0.24737924
41	0x3db5bbf4	0.0887374
42	0xbdc64a94	-0.096821934
43	0xbea16829	-0.3152478
44	0xbd96e39c	-0.07367632
45	0x3e247272	0.16059282
46	0x3e0723dc	0.13197273
47	0xbe8eb22c	-0.2787031
48	0x3dcc590c	0.09977922
49	0xbdc1b6dc	-0.09458706
50	0xbe1397a2	-0.14413312
51	0xbdb15de4	-0.08660486
52	0x3df58a84	0.119893104
53	0xbe809194	-0.25111067
54	0x3c5f6240	0.0136342645
55	0x3dae2b3c	0.0850434
56	0xbcf7b280	-0.030236483
57	0x3e7372ba	0.23774233
58	0x3e9a4927	0.30133936
59	0xbe2da15a	-0.16956082
60	0x3ea3b4f9	0.3197401
61	0x3e7e57be	0.24838158
62	0x3e62ce76	0.22149071
63	0x3cf64fb0	0.030067295
64	0xbe91adc3	-0.28452882
65	0xbe9e8d4f	-0.30967185
66	0x3e3cdeda	0.18444386
67	0x3c77dce0	0.015128344
68	0xbdcba680	-0.09943867
69	0x3eaf1333	0.34194335
70	0x3e8580df	0.26074883
71	0xbe2403bc	-0.1601705
72	0x3c4c7b80	0.012480617
73	0xbe254ce5	-0.16142614
74	0x3e538a52	0.20658234
75	0xbe01c260	-0.12671804
76	0xbeb24057	-0.34814712
77	0xbdc93d8c	-0.09826192
78	0xbe97dfc2	-0.296629
79	0xbd218948	-0.039437562
80	0xbeaff4e1	-0.34366515
81	0x3c2bf380	0.010495067
82	0xbe08135f	-0.1328864
83	0x3e949425	0.29019275
84	0x3e4932a2	0.19648221
85	0xbe8bf22c	-0.273332
86	0x3e7f6042	0.24939063
87	0x3ddd3aa8	0.108022034
88	0x3dba7920	0.09105134
89	0xbd240978	-0.040048093
90	0xbda2769c	-0.07932779
91	0xbce8ae20	-0.028403342
92	0xbe8f01f8	-0.2793119
93	0xbe7424c0	-0.23842144
94	0x3e86226b	0.26198134
95	0xbe336afb	-0.17521279
96	0x3e66e9cd	0.22550125
97	0x3e7a4b15	0.24442704
98	0x3ee6b095	0.45056596
99	0x3ebfbf65	0.3745071
100	0xbed25482	-0.410801
101	0xbda8796d	-0.08226285
102	0x3dd47b40	0.103750706
103	0x3de33301	0.110937126
104	0x3e190dc9	0.14946665
105	0x3dc2d251	0.09512771
106	0xbcd80d60	-0.026373565
107	0x3e563481	0.20918466
108	0x3e33dc8d	0.17564602
109	0xbe9820ec	-0.29712617
110	0xbea8cbd8	-0.3296802
111	0x3ec7bfd4	0.3901354
112	0x3e4d6dd6	0.2006143
113	0xbe985dfc	-0.29759204
114	0x3dff8eb8	0.12478393
115	0x3e4b781a	0.19870034
116	0xbd11b708	-0.035574943
117	0x3e2ef6c1	0.17086317
118	0x3db80e37	0.08987086
119	0x3e5ccd10	0.215626
120	0xbe6a3b2b	-0.22874133
121	0x3eb26247	0.34840605
122	0x3d3a1598	0.04543075
123	0x3dc75878	0.09733671
124	0xbe61a29a	-0.22034684
125	0xbd61f8a5	-0.055168767
126	0xbe1aa4d7	-0.15101944
127	0x3ec7d181	0.39027026
128	0xbc577a80	-0.013151765
129	0xbeb11369	-0.3458512
130	0xbc44ff40	-0.012023747
131	0xba99eb00	-0.0011743009
132	0xbe34caec	-0.17655534
133	0xbe852193	-0.26002178
134	0xbd831618	-0.064006984
135	0xbd5ddfc0	-0.054168463
136	0x3cfd0980	0.030888319
137	0x3dd0a7c4	0.10188249
138	0xbd2d7f50	-0.042357743
139	0xbd49a4e8	-0.049229532
140	0x3e1a78e2	0.15085176
141	0x3dd5e168	0.104433835
142	0x3d948200	0.07251358
143	0x3d20bf80	0.03924513
144	0xbeb1af16	-0.34703892
145	0xbceb0680	-0.028689623
146	0x3d2f1630	0.04274577
147	0x3ea77c3f	0.3271198
148	0xbc2b8040	-0.010467589
149	0xbdf32ef6	-0.118741915
150	0x3d98348c	0.074318975
151	0xbeae04da	-0.33988076
152	0x3e9dc475	0.30813947
153	0x3c821d50	0.015883118
154	0xbe4995c7	-0.19686042
155	0x3da7603c	0.08172652
156	0x3c3591a0	0.011082083
157	0xbd7437d0	-0.05962354
158	0xbd9a0a80	-0.07521534
159	0xbe4daa44	-0.20084482
160	0x3e8b9933	0.2726532
161	0xbe959416	-0.29214543
162	0xbde26842	-0.11055042
163	0x3d9e9f28	0.077452004
164	0x3e4ce23a	0.20008174
165	0x3e9e7b2b	0.30953345
166	0x3e9055b3	0.28190383
167	0xbe272c88	-0.16325581
168	0xbdec3f98	-0.11535567
169	0xbe674958	-0.22586572
170	0x3a5eb200	0.0008495152
171	0xbe8d9407	-0.27651998
172	0xbea3b6fb	-0.3197554
173	0xbdd6b960	-0.10484576
174	0xbeb07e66	-0.34471434
175	0xbe84dc99	-0.25949553
176	0xbde25344	-0.11051038
177	0x3c8e6690	0.01738289
178	0x3e8d485f	0.27594277
179	0x3e9e9bbd	0.30978194
180	0xbe3b9bb0	-0.18321109
181	0x3dfa31c8	0.12216526
182	0xbe742065	-0.23840483
183	0xbcfb1ba0	-0.030652821
184	0xbd82944c	-0.06375942
185	0xbe111ef3	-0.14171962
186	0xbe992ffa	-0.29919416
187	0xbea94c4f	-0.3306603
188	0xbe36966e	-0.17830822
189	0xbdcef514	-0.10105339
190	0xbea8357d	-0.32853308
191	0x3e89c775	0.26909986
192	0x3ea35301	0.31899264
193	0xbe59b93e	-0.2126207
194	0xbeb42c13	-0.35189876
195	0xbe44187b	-0.19149964
196	0x3db67fec	0.08911118
197	0xbe761fdb	-0.2403559
198	0x3e05bcda	0.13060322
199	0x3d18693e	0.03720974
200	0xbe975da9	-0.29563645
201	0x3e8d1e0d	0.2756199
202	0x3e155122	0.14581731
203	0xbe9bd0b6	-0.3043267
204	0xbbe2fc86	-0.006927076
205	0xbe033414	-0.12812835
206	0x3ead4683	0.3384286
207	0x3eab5fb9	0.33471468
208	0xbd8dcc73	-0.06923761
209	0x3c141bed	0.009039861
210	0x3e981809	0.29705837
211	0xbdf13296	-0.117772266
212	0x3eaf19b3	0.34199294
213	0x3ea2dd69	0.31809548
214	0xbdfbd79c	-0.122969836
215	0xbe886b14	-0.26644194
216	0xbe041d9f	-0.12901925
217	0xbe26808d	-0.16259976
218	0xbc76aa00	-0.01505518
219	0x3c5b44a0	0.013383061
220	0x3ea65bcd	0.32491913
221	0x3ea99a3a	0.33125478
222	0x3df29cb8	0.11846298
223	0xbe2369f4	-0.15958387
224	0xbe11b1ee	-0.14228031
225	0x3f071daf	0.5277967
226	0x3ebe31bd	0.37147322
227	0x3eab0c95	0.33408037
228	0xbe8f8517	-0.28031227
229	0x3b552ce6	0.0032527982
230	0x3e528d9e	0.20561835
231	0x3e788eab	0.24273174
232	0x3dd6ff45	0.104979075
233	0x3e9c16f3	0.3048626
234	0x3e040c14	0.12895232
235	0xbe82bd75	-0.2553517
236	0xbe2a9c1b	-0.16661112
237	0xbdebb3ce	-0.115089044
238	0x3e8f3205	0.2796785
239	0x3eec97c3	0.46209535
240	0x3d504710	0.05084902
241	0x3db161e7	0.086612515
242	0x3dd8ee50	0.105923295
243	0x3e574416	0.21022066
244	0x3e418781	0.18899347
245	0xbe69fd14	-0.22850448
246	0x3eb1b448	0.34707856
247	0xbe387b2f	-0.18015741
248	0x3ea5515b	0.32288632
249	0x3e2615ba	0.16219226
250	0x3eb46239	0.35231188
251	0x3e8196e3	0.2531043
252	0x3ee5d749	0.44890812
253	0xbe061d2b	-0.13097064
254	0x3e8637d6	0.26214474
255	0x3ea89f81	0.32934192

sequential_36/dense_137/MatMul f4 [6, 16]
0	0x3d8a1123	0.0674155
1	0x3e260bbc	0.16215414
2	0x3f017daf	0.505824
3	0x3f04e0e9	0.51905686
4	0xbe9df58a	-0.30851394
5	0xbebbe448	-0.36697602
6	0x3e27fcfb	0.16405098
7	0xbd5ce965	-0.05393352
8	0x3ec38ad2	0.3819185
9	0xbeb1219e	-0.3459596
10	0xbf5f54dd	-0.87238866
11	0x3e6750b8	0.22589386
12	0x3d993708	0.074811995
13	0xbf8bab5c	-1.091167
14	0x3ea4a6e8	0.3215859
15	0x3f899871	1.0749646
16	0xbed91214	-0.42396605
17	0xbd4efad0	-0.050532162
18	0xbeaf3d44	-0.3422643
19	0x3e6f4a98	0.23368299
20	0xbe5fcfd0	-0.21856618
21	0x3da328e8	0.079667866
22	0xbe78b302	-0.24287036
23	0xbdfacbd4	-0.122459084
24	0x3f17768e	0.59165275
25	0xbef7d64a	-0.48405677
26	0x3f01bd0f	0.50679106
27	0x3e598ed8	0.21245897
28	0xbd50dba8	-0.05099073
29	0x3f1888b6	0.59583604
30	0xbed9009a	-0.4238327
31	0xbf41fb99	-0.7577453
32	0x3f32d335	0.69853526
33	0x3edc9afa	0.43086988
34	0xbd9d32b0	-0.076756835
35	0xbe38cac2	-0.18046096
36	0x3eb273b6	0.34853905
37	0x3ed81318	0.42202067
38	0xbd912483	-0.07087042
39	0xbf795ce5	-0.9740737
40	0x3d23f8bc	0.040032133
41	0x3f3e6185	0.74367553
42	0xbe79af93	-0.24383382
43	0xbdca876c	-0.09889111
44	0x3e7730ec	0.24139756
45	0x3edda9f4	0.43293726
46	0x3eaf0805	0.34185806
47	0x3de8a335	0.11359254
48	0xbf0bdba8	-0.54632044
49	0x3ebfd414	0.3746649
50	0xbedf8ecf	-0.43663642
51	0xbea44333	-0.3208252
52	0xbb0dc700	-0.0021633506
53	0x3c34d700	0.011037588
54	0xbd242172	-0.04007096
55	0xbdcbbd44	-0.09948209
56	0xbf0f7205	-0.56033355
57	0xbf131d7e	-0.57466877
58	0xbe84cdf8	-0.25938392
59	0xbe973b40	-0.29537392
60	0xbed9c236	-0.42530984
61	0x3ef5a88a	0.47980148
62	0x3f2631c0	0.6491966
63	0x3e7ce629	0.24697174
64	0x3edb6c2f	0.42855975
65	0x3e818af8	0.25301337
66	0xbce6ca90	-0.028172761
67	0xbdf5cabb	-0.120015584
68	0xbd3260f8	-0.043549508
69	0xbe5a0602	-0.21291354
70	0xbd924693	-0.07142367
71	0x3df1d5cb	0.11808356
72	0x3f304398	0.6885314
73	0x3ece8c48	0.403414
74	0x3f213249	0.62967354
75	0xbd88527c	-0.06656358
76	0x3e13b58c	0.14424723
77	0xbf443d11	-0.7665568
78	0xbec90154	-0.39258826
79	0xbe7101e4	-0.23535877
80	0x3ec1940b	0.3780826
81	0xbd03ff18	-0.0322257
82	0x3e83622c	0.25660837
83	0xbe51074a	-0.20412937
84	0xbec806e6	-0.39067763
85	0x3eb90272	0.36134678
86	0x3ee1bb67	0.4408829
87	0x3eb2c29a	0.34914094
88	0x3ec065e8	0.37577748
89	0xbea232fc	-0.31679523
90	0xbe855707	-0.2604296
91	0xbe7823cc	-0.24232405
92	0x3e96e158	0.294688
93	0xbebcad26	-0.36850852
94	0x3f31a1da	0.6938759
95	0x3e93ea25	0.28889576
