PARCIAL2/gesture_model_0.95.tflite (tflite, 262680 bytes, 6 tensors)

sequential_26/dense_97/BiasAdd/ReadVariableOp f4 [6]
-0.20640098 0.1084983 0.22057137 -0.2702331 0.14778852 -0.00021584646
00000000: c75a 53be 5b34 de3d 76dd 613e fe5b 8abe
00000010: e055 173e d854 62b9

sequential_26/dense_96/BiasAdd/ReadVariableOp f4 [32]
0.0010417103 -0.0017526954 0.0 0.018670743 -0.024516566 0.06952832 -0.014143085 -1.4838854e-06
-0.024796799 0.0 0.026469827 0.0 0.0 -0.003444273 -0.029010521 0.0
0.08512038 0.00980717 -0.0011045237 0.018097633 0.0 -0.0043364265 0.0 0.0
0.012802914 0.0 0.028552204 -0.010798922 0.04899153 -0.0007953861 0.00531848 -0.05312576
00000000: ff89 883a b3ba e5ba 0000 0000 63f3 983c
00000010: f7d6 c8bc dd64 8e3d 66b8 67bc ea29 c7b5
00000020: a822 cbbc 0000 0000 40d7 d83c 0000 0000
00000030: 0000 0000 50b9 61bb 79a7 edbc 0000 0000
00000040: 9853 ae3d 41ae 203c aac5 90ba 7d41 943c
00000050: 0000 0000 9518 8ebb 0000 0000 0000 0000
00000060: 50c3 513c 0000 0000 50e6 e93c f6ed 30bc
00000070: 58ab 483d 7581 50ba a546 ae3b 669a 59bd

sequential_26/dense_95/BiasAdd/ReadVariableOp f4 [128]
0.0 0.029917333 0.0 0.0 -0.018121297 -0.016783522 0.0 -0.0005473452
0.0 -0.00770737 0.0 0.0155031225 0.0 -0.026690396 -0.023250718 0.0150454715
-0.017962577 0.019777106 0.0 0.0 -0.00923467 -0.032628126 0.0 -0.023206681
0.008208311 0.0 -0.0084304605 -0.002888506 -0.0065042553 -0.03670769 0.043782342 -0.01178233
-0.0012906812 0.0 -0.037952933 0.028276866 0.0 0.03926944 -0.00011721408 0.0
-0.024582118 0.0 -0.031692654 0.0 -0.0013201102 -0.0036216276 0.0075671985 0.03330069
-0.023849348 0.003820153 0.0 -0.030380066 0.028940953 0.0 0.0 0.006206611
0.0 -0.003481734 0.0 -0.0041073947 0.0 0.0 0.0 0.0
0.0 0.0 0.0 0.0 -0.007778749 -0.0070904163 -0.014939867 0.0
0.0 0.037405726 -0.0011455328 0.041480098 0.04419781 0.0 -0.03656365 0.0
-0.0009603428 0.030914811 -0.0017709757 0.014294612 0.04970107 -3.265388e-05 -0.0031182927 -0.008748075
0.012390401 0.007146993 -0.015659016 0.011895683 0.0 0.033831585 0.020729616 -0.029759616
0.0 0.0 0.03090924 0.0 -0.026917843 0.0 0.0 0.0427547
0.04455623 -0.0009205285 0.0 0.00017801701 0.0 0.0 0.0 -0.02084028
-0.0006532491 0.007571322 0.008058642 0.0 -0.0022791314 0.028101081 0.0034436558 0.035760548
0.011394414 0.029308124 -0.0056676264 0.0034718178 0.0 0.0 0.019008402 -0.0004389089
00000000: 0000 0000 3215 f53c 0000 0000 0000 0000
00000010: 1d73 94bc 997d 89bc 0000 0000 b77b 0fba
00000020: 0000 0000 1b8e fcbb 0000 0000 cf00 7e3c
00000030: 0000 0000 d1a5 dabc 4a78 bebc 4881 763c
00000040: 4126 93bc 9903 a23c 0000 0000 0000 0000
00000050: 034d 17bc 12a5 05bd 0000 0000 f01b bebc
00000060: 277c 063c 0000 0000 ea1f 0abc 174d 3dbb
00000070: a621 d5bb ce5a 16bd 1d55 333d ad0a 41bc
00000080: 132c a9ba 0000 0000 8974 1bbd e3a4 e73c
00000090: 0000 0000 fed8 203d d4d0 f5b8 0000 0000
000000a0: 7060 c9bc 0000 0000 28d0 01bd 0000 0000
000000b0: 8c07 adba d458 6dbb 43f6 f73b 4e66 083d
000000c0: b55f c3bc 885b 7a3b 0000 0000 9edf f8bc
000000d0: 9415 ed3c 0000 0000 0000 0000 d460 cb3b
000000e0: 0000 0000 ce2d 64bb 0000 0000 5397 86bb
000000f0: 0000 0000 0000 0000 0000 0000 0000 0000
00000100: 0000 0000 0000 0000 0000 0000 0000 0000
00000110: e0e4 febb b956 e8bb 58c6 74bc 0000 0000
00000120: 0000 0000 bf36 193d b425 96ba 09e7 293d
00000130: c308 353d 0000 0000 c4c3 15bd 0000 0000
00000140: 84bf 7bba 0f41 fd3c 1520 e8ba f333 6a3c
00000150: 5993 4b3d d6f5 08b8 455c 4cbb 1654 0fbc
00000160: 1c01 4b3c 5331 ea3b 5647 80bc 1ce6 423c
00000170: 0000 0000 fd92 0a3d 28d1 a93c 70ca f3bc
00000180: 0000 0000 0000 0000 6035 fd3c 0000 0000
00000190: cf82 dcbc 0000 0000 0000 0000 8d1f 2f3d
000001a0: 9880 363d 9f4f 71ba 0000 0000 14aa 3a39
000001b0: 0000 0000 0000 0000 0000 0000 3cb9 aabc
000001c0: ce3e 2bba da18 f83b 6508 043c 0000 0000
000001d0: 7b5d 15bb 3d34 e63c f5ae 613b a779 123d
000001e0: a3af 3a3c 9717 f03c 7fb7 b9bb 7087 633b
000001f0: 0000 0000 0000 0000 82b7 9b3c 5b1d e6b9

sequential_26/dense_95/MatMul f4 [128, 474]
0.08853269 -0.0029550716 -0.00930807 -0.08810454 -0.023257129 0.021070369 -0.005258575 -0.068434045
0.04461748 0.04546698 0.07175697 -0.032948583 -0.01997649 -0.03703183 -0.01910995 -0.03479804
0.0110024065 -0.04726914 -0.07870809 0.09700016 -0.082360655 0.030353568 0.03849698 0.035208084
-0.031747833 -0.016782664 0.0034509376 -0.023983091 0.085105814 0.0007811859 -0.035951234 0.0067839697
-0.039524205 0.036924265 0.049492903 0.051454358 0.0055441335 -0.008915976 -0.098555215 0.055943854
-0.02813413 0.053618975 -0.012973398 0.09216086 -0.03825224 0.012072653 -0.057473246 -0.05428675
-0.06892385 -0.06669383 0.072214864 0.060372762 0.08857218 0.046416856 0.06259132 -0.07942932
0.029423706 -0.08715393 0.009365268 0.031353243 -0.043033034 0.00867103 -0.057364874 0.09699065
-0.046111852 0.08121296 -0.067219995 -0.011197448 -0.01171995 0.052945994 0.0122962 -0.06831575
-0.02351538 0.033239536 0.031589977 0.060816668 -0.0025190637 -0.0947947 0.096452855 -0.098323144
-0.08265133 0.0066282526 -0.0463245 0.04503473 -0.035039365 -0.09182747 0.004893549 -0.063566685
-0.0651815 -0.06293126 0.055624463 0.0671413 0.006756544 -0.054703835 -0.04048422 -0.024641365
-0.010534033 0.081056885 0.014236964 -0.096132696 -0.08544897 -0.021000534 0.05174627 -0.09142009
-0.024786465 -0.049420338 0.06762772 0.054410644 -0.034404255 -0.0966175 0.012724072 -0.053071454
-0.09049088 -0.04892061 -0.08581905 0.001420565 -0.0643743 0.02924364 0.041016944 -0.025128312
-0.015341863 0.07108898 0.004248813 -0.003337264 -0.058635745 -0.04040827 0.023414932 -0.07702908
-0.08824888 0.042206414 -0.05978185 0.0014936626 -0.015236326 -0.030970238 0.009431846 -0.03199487
-0.0399725 -0.09931305 0.028037153 -0.006181009 0.059426628 -0.006126456 -0.093641244 -0.06421149
-0.03675332 0.06733293 0.09963966 -0.06438893 -0.029290989 0.08255788 -0.0353985 0.08634218
-0.07507956 0.06627264 -0.0112332925 -0.032398015 -0.08509437 -0.06542295 0.048731856 0.063847475
-0.02590803 0.07123893 0.042898737 0.08165156 -0.03494423 -0.047531772 -0.08575974 0.04432387
-0.09816226 0.019522153 0.0045940205 0.053480186 0.025439315 0.07948474 -0.09626544 0.077387325
-0.07847419 0.09190904 0.07812006 -0.055295605 -0.070241995 -0.01880449 -0.08382842 0.071990006
-0.09304079 0.08277304 0.005836688 0.06117689 -0.0020743385 0.066742755 0.06430187 0.081809975
0.028402664 0.0071351677 0.06524383 0.08292734 0.042189382 -0.041918375 0.059064813 -0.08127354
-0.080317594 0.04110015 -0.024575718 0.004058659 -0.053837743 -0.020439275 0.045729615 -0.06788407
0.008359052 -0.07712072 0.02450072 0.06812563 0.07416829 -0.052980673 -0.07392384 -0.04143086
-0.008788355 0.049765654 0.011338852 0.09172184 -0.076818384 0.04440842 -0.068251625 0.009471998
-0.039117333 -0.067150444 -0.028454147 0.02021613 -0.0030103624 0.018524699 -0.08513826 0.008690119
-0.035173967 0.021923535 0.04978139 0.03575913 -0.09431725 0.08345211 0.07297259 -0.086334914
-0.030175976 -0.019373126 -0.0032414347 0.0067229345 -0.034535855 0.0618793 0.08221439 -0.053966727
0.018996075 -0.06480588 0.08849608 -0.030735664 -0.047384746 0.054829516 -0.06984145 0.019255757
00000000: a150 b53d e0a9 41bb e080 18bc 2770 b4bd
00000010: bc85 bebc c49b ac3c 2050 acbb 2627 8cbd
00000020: d2c0 363d 963b 3a3d 51f5 923d 18f5 06bd
00000030: bca5 a3bc b0ae 17bd 788c 9cbc 6488 0ebd
00000040: 7043 343c 499d 41bd b531 a1bd 05a8 c63d
00000050: b4ac a8bd 0ca8 f83c 02af 1d3d 5a36 103d
00000060: 040a 02bd cc7b 89bc 2029 623b 3078 c4bc
00000070: f54b ae3d 80c8 4c3a 9a41 13bd 104c de3b
00000080: 22e4 21bd e63d 173d 12b9 4a3d cec1 523d
00000090: 90ab b53b 5014 12bc 51d7 c9bd 6225 653d
000000a0: 8c79 e6bc 929f 5b3d 608e 54bc d5be bc3d
000000b0: 61ae 1cbd 60cc 453c 1169 6bbd c85b 5ebd
000000c0: f327 8dbd c696 88bd 63e5 933d 6e49 773d
000000d0: 5565 b53d 9a1f 3e3d e12f 803d d7ab a2bd
000000e0: fc09 f13c c27d b2bd c870 193c 426c 003d
000000f0: 6843 30bd f010 0e3c 6ef7 6abd 09a3 c63d
00000100: c8df 3cbd fb52 a63d a3aa 89bd 8075 37bc
00000110: 0805 40bc e6dd 583d 0076 493c 21e9 8bbd
00000120: 54a3 c0bc 2e26 083d 7e64 013d e61a 793d
00000130: e016 25bb b923 c2bd 1389 c53d a55d c9bd
00000140: 1a45 a9bd d031 d93b c2be 3dbd 5676 383d
00000150: 7085 0fbd 0a10 bcbd 105a a03b 402f 82bd
00000160: e17d 85bd 1be2 80bd 7ad6 633d 6181 893d
00000170: 0066 dd3b 2111 60bd c8d2 25bd b0dc c9bc
00000180: f096 2cbc 2701 a63d 2842 693c 38e1 c4bd
00000190: dfff aebd 5009 acbc e6f3 533d 753a bbbd
000001a0: fc0c cbbc fb6c 4abd 6780 8a3d b2dd 5e3d
000001b0: 7aeb 0cbd 65df c5bd a078 503c 7461 59bd
000001c0: 4853 b9bd fa60 48bd e6c1 afbd 4032 ba3a
000001d0: acd6 83bd 5c90 ef3c 6201 283d e4d9 cdbc
000001e0: 705c 7bbc 1997 913d a039 8b3b 00b6 5abb
000001f0: 092c 70bd 2483 25bd acd0 bf3c 6cc1 9dbd
00000200: d4bb b4bd a2e0 2c3d d0dd 74bd 00c7 c33a
00000210: c8a1 79bc 4cb5 fdbc 0888 1a3c 0e0d 03bd
00000220: 34ba 23bd a464 cbbd 2cae e53c 108a cabb
00000230: 5669 733d 70c0 c8bb fbc6 bfbd 5081 83bd
00000240: a68a 16bd d9e5 893d e10f cc3d 58de 83bd
00000250: a8f3 efbc 1b14 a93d 04fe 10bd 2bd4 b03d
00000260: 50c3 99bd f3b9 873d d80b 38bc c8b3 04bd
00000270: f545 aebd 78fc 85bd 0e9b 473d 77c2 823d
00000280: 143d d4bc b7e5 913d 96b6 2f3d ef38 a73d
00000290: ae21 0fbd adb0 42bd cda2 afbd f28c 353d
000002a0: 4c09 c9bd ecec 9f3c 7089 963b 0a0e 5b3d
000002b0: 1c66 d03c e5c8 a23d d126 c5bd 3f7d 9e3d
000002c0: 13b7 a0bd cf3a bc3d 69fd 9f3d a57d 62bd
000002d0: 09db 8fbd e00b 9abc 3cae abbd 7f6f 933d
000002e0: 2b8c bebd e984 a93d b041 bf3b 9e94 7a3d
000002f0: a0f1 07bb 6db0 883d b3b0 833d fd8b a73d
00000300: b4ac e83c 20ce e93b 8f9e 853d cfd5 a93d
00000310: c6ce 2c3d 9ab2 2bbd f2ed 713d be72 a6bd
00000320: 8d7d a4bd a258 283d 0453 c9bc 80fe 843b
00000330: f784 5cbd 4470 a7bc fa4e 3b3d ce06 8bbd
00000340: 68f4 083c 78f1 9dbd bcb5 c83c 7385 8b3d
00000350: 8be5 973d 4302 59bd 6265 97bd 68b3 29bd
00000360: 08fd 0fbc 12d7 4b3d 98c6 393c a9d8 bb3d
00000370: f552 9dbd 9ae5 353d 82c7 8bbd 7030 1b3c
00000380: 7f39 20bd 2c86 89bd ac18 e9bc 4c9c a53c
00000390: 8049 45bb 1cc1 973c f85c aebd 0061 0e3c
000003a0: 9412 10bd fc98 b33c 92e7 4b3d 2a78 123d
000003b0: 6729 c1bd f1e8 aa3d a772 953d 5cd0 b0bd
000003c0: 9c33 f7bc 64b4 9ebc 406e 54bb 104c dc3b
000003d0: 7875 0dbd 2675 7d3d 0560 a83d 370c 5dbd
000003e0: a89d 9b3c f2b8 84bd 6f3d b53d 5cc9 fbbc
000003f0: 8216 42bd ea94 603d 0909 8fbd 40be 9d3c

sequential_26/dense_96/MatMul f4 [32, 128]
-0.1477202 0.05917209 -0.08322363 -0.004787326 -0.08199969 -0.028933408 0.17941049 -0.09805767
0.18474782 -0.058805723 0.051666602 -0.004109349 0.097842544 0.12314166 -0.13690321 -0.16551377
0.032372307 0.18505952 0.028410345 0.12265986 -0.14977595 -0.047877517 -0.13957566 0.0293614
0.020527007 0.1316325 -0.020894514 -0.15633182 0.060182475 -0.15642247 -0.15416428 0.116562404
-0.10685414 -0.09529697 0.15208736 -0.19056232 -0.1405221 0.08977284 -0.0316339 -0.076919645
0.011359145 0.17743349 -0.038250893 0.07155475 -0.009490609 -0.08097785 0.057192218 0.055224113
0.17378889 -0.19261907 -0.16639915 -0.08457736 0.06988814 -0.1597652 -0.02613996 0.07004811
0.13694662 -0.1260074 0.099306524 0.11627581 0.07782623 0.04682988 0.10923174 -0.040151596
0.13170108 -0.059437543 -0.16559696 -0.11986403 0.12260148 -0.16223828 0.14714402 0.16933203
0.14961597 0.031397197 -0.009578881 0.16526885 -0.05152722 -0.14768106 -0.042127512 -0.13020092
-0.07274835 -0.1503068 0.15174195 -0.17748329 -0.16215707 0.0906881 0.079576924 -0.07739715
0.039082244 -0.034850165 -0.010461112 -0.15465243 -0.10456413 -0.15295944 -0.17495465 0.07228516
0.050861225 -0.042383984 -0.020251973 -0.010764658 -0.13248427 0.112856925 -0.08216284 -0.16543157
0.15031098 0.04065762 0.13476866 -0.17616244 0.061787844 -0.04873401 -0.15998483 0.06857551
-0.16325778 0.16975217 -0.00053028704 0.15402913 0.12315128 -0.11814108 0.12734063 0.1234902
-0.043250825 -0.11019397 -0.051225223 -0.09985976 -0.098958634 -0.04812558 -0.16926287 0.05773872
0.041651413 0.14465752 -0.042100593 -0.04708077 0.054352403 -0.16902399 0.07131636 -0.06561443
0.07246432 0.07134166 -0.07164417 0.18139121 -0.028207242 0.14331448 -0.16333424 -0.13669841
0.05677012 0.07600799 -0.006517902 -0.023969337 0.017246384 0.04341277 0.028592303 0.07425745
-0.144213 -0.0028885454 0.16620985 -0.12253271 -0.038288366 0.119688384 0.14193413 -0.05031241
0.04526232 -0.13825881 0.07218541 -0.038739573 -0.062578276 0.14480762 0.07560778 -0.112079285
-0.12040409 -0.031258777 0.13295636 -0.19042294 -0.08933339 0.027550358 -0.15673988 -0.14093943
-0.020139972 0.16206107 0.09137574 -0.17472483 -0.05196108 -0.028718859 0.14932561 -0.11625623
0.012752637 -0.03066253 -0.047624126 -0.06347331 -0.1607934 0.15365872 0.17069834 -0.052012175
-0.15967323 -0.17329536 0.14043233 -0.184451 -0.051244047 0.013376153 0.06813318 0.01716894
0.07295048 0.069386676 -0.077041544 -0.007046837 -0.13538247 -0.07975381 -0.06795389 -0.07440169
0.10696529 -0.045160893 0.17235902 0.024881419 0.017991956 -0.08704802 -0.028059686 0.15980224
0.046848636 0.1561239 0.082161374 -0.0060284007 0.068017125 0.049013928 -0.0696688 -0.14230844
-0.0061939657 0.10739687 -0.12397634 -0.04062806 0.05151388 -0.0864085 0.0039209425 0.004614935
-0.051452074 0.040571243 0.005383417 0.041154098 -0.16865847 0.10206002 -0.13871026 -0.02302302
0.06777707 0.048271306 0.084922135 0.07104719 -0.01996924 0.111265585 -0.0982039 -0.053322803
0.028164016 0.07169537 0.09161195 -0.048237316 0.011310294 -0.16837406 0.03230961 0.04490438
00000000: f743 17be 6f5e 723d 2771 aabd 00df 9cbb
00000010: 74ef a7bd c105 edbc 62b7 373e 76d2 c8bd
00000020: 882e 3d3e 45de 70bd 5ca0 533d b8a7 86bb
00000030: ac61 c83d b231 fc3d 5b30 0cbe 717c 29be
00000040: d398 043d 3e80 3d3e d0bc e83c 1835 fb3d
00000050: de5e 19be 371b 44bd ecec 0ebe 5287 f03c
00000060: 4128 a83c acca 063e f92a abbc 7315 20be
00000070: e681 763d 362d 20be 3edd 1dbe 45b8 ee3d
00000080: 58d6 dabd 0f2b c3bd cabc 1b3e c522 43be
00000090: 06e5 0fbe d3da b73d 8c92 01bd 0c88 9dbd
000000a0: b51b 3a3c 20b1 353e f8ac 1cbd 4c8b 923d
000000b0: 807e 1bbc b7d7 a5bd 6342 6a3d ae32 623d
000000c0: b7f5 313e ef3d 45be 8a64 2abe e536 adbd
000000d0: 8321 8f3d 7d99 23be 7823 d6bc 6275 8f3d
000000e0: bc3b 0c3e 1508 01be 3861 cb3d 0322 ee3d
000000f0: 5c63 9f3d b0d0 3f3d e4b4 df3d 0076 24bd
00000100: a6dc 063e c874 73bd 4092 29be 467b f5bd
00000110: 7c16 fb3d cb21 26be ecac 163e 6065 2d3e
00000120: ee34 193e 599a 003d bdf0 1cbc 3d3c 293e
00000130: 350e 53bd b439 17be e68d 2cbd 6453 05be
00000140: 16fd 94bd 07ea 19be 3e62 1b3e 2ebe 35be
00000150: 810c 26be afba b93d 3af9 a23d 6682 9ebd
00000160: b414 203d 0cbf 0ebd 1565 2bbc 355d 1ebe
00000170: b825 d6bd 66a1 1cbe 5027 33be 3e0a 943d
00000180: dc53 503d d49a 2dbd 77e7 a5bc 405e 30bc
00000190: f5a9 07be 8821 e73d fe44 a8bd e566 29be
000001a0: 1feb 193e 9b88 263d cc00 0a3e ed63 34be
000001b0: 4015 7d3d 509d 47bd 10d3 23be 5171 8c3d
000001c0: 0c2d 27be 83d3 2d3e f602 0bba d0b9 1d3e
000001d0: bd36 fc3d f3f3 f1bd 9565 023e 6ee8 fc3d
000001e0: c727 31bd 60ad e1bd 8ad1 51bd 4683 ccbd
000001f0: d3aa cabd 541f 45bd 3f53 2dbe 707f 6c3d
00000200: ac9a 2a3d 1a21 143e ac71 2cbd c4d7 40bd
00000210: a0a0 5e3d a014 2dbe 500e 923d dc60 86bd
00000220: 2c68 943d 941b 923d 2eba 92bd 9ebe 393e
00000230: e012 e7bc 08c1 123e 1741 27be abfa 0bbe
00000240: c987 683d 14aa 9b3d 2094 d5bb 585b c4bc
00000250: 4a48 8d3c 97d1 313d 683a ea3c 4a14 983d
00000260: 93ac 13be c04d 3dbb ea32 2a3e 6ef2 fabd
00000270: 43d4 1cbd 2f1f f53d 2e57 113e 6314 4ebd
00000280: fc64 393d b893 0dbe f2d5 933d 63ad 1ebd
00000290: 0a29 80bd 7348 143e 40d8 9a3d d389 e5bd
000002a0: 6b96 f6bd 3409 00bd b625 083e 3bfe 42be
000002b0: 6df4 b6bd 4ab1 e13c 6b80 20be 6d52 10be
000002c0: 95fc a4bc 56f3 253e 3423 bb3d 11eb 32be
000002d0: 24d5 54bd d043 ebbc d0e8 183e bf17 eebd
000002e0: 70f0 503c fc2f fbbc 8411 43bd 4bfe 81bd
000002f0: 06a7 24be b658 1d3e 8ccb 2e3e b80a 55bd
00000300: 6181 23be 5774 31be 7ecd 0f3e b9e0 3cbe
00000310: 47e5 51bd a727 5b3c 6989 8b3d e0a5 8c3c
00000320: 1067 953d 9a1a 8e3d f5c7 9dbd 27e9 e6bb
00000330: b4a1 0abe f755 a3bd 692b 8bbd ea5f 98bd
00000340: 9e10 db3d a1fa 38bd e27e 303e 1ed4 cb3c
00000350: de63 933c 3b46 b2bd 6ddd e5bc 33a3 233e
00000360: 5be4 3f3d f2de 1f3e 3944 a83d e489 c5bb
00000370: 904c 8b3d d4c2 483d 84ae 8ebd 4eb9 11be
00000380: c0f6 cabb e4f2 db3d 4fe7 fdbd 9c69 26bd
00000390: 3800 533d f1f6 b0bd 407b 803b e138 973b
000003a0: 69bf 52bd 082e 263d 6067 b03b 3391 283d
000003b0: ceb4 2cbe d804 d13d 100a 0ebe c69a bcbc
000003c0: b4ce 8a3d 22b8 453d a8eb ad3d 3081 913d
000003d0: 8896 a3bc 36df e33d 201f c9bd 0369 5abd
000003e0: 39b8 e63c 06d5 923d 0c9f bb3d 7e94 45bd
000003f0: d04e 393c 406a 2cbe 1557 043d a8ed 373d

sequential_26/dense_97/MatMul f4 [6, 32]
0.09910327 0.12014271 0.1807594 -0.34395894 0.34167853 -0.7956375 -0.27903703 0.24931833
0.664634 0.10767892 -0.34142536 0.033572763 -0.0754202 -0.11161027 0.43098047 -0.15494882
-1.063404 -0.2475749 -0.21932168 0.65159136 -0.1966913 0.28944844 0.3659756 0.09266934
0.027162028 0.32693997 0.2964578 -0.16306621 -0.55222875 -0.21023774 -0.05124705 0.9237914
0.07065569 -0.36114317 0.27767792 0.4179561 -0.39895338 -0.6412588 -0.30815533 0.08822679
0.061988883 0.07433024 -0.3912566 -0.17999564 -0.3029757 -0.1987263 -0.17006473 -0.32211694
0.6864638 0.42793626 0.032844212 -0.6426364 0.21494731 0.3897537 -0.1193842 -0.3800755
0.30761606 -0.39338288 0.6115625 -0.3710983 0.6105718 -0.04301587 0.059015524 -0.7653588
0.08418821 -0.061033424 -0.377665 -0.34935498 -0.39632565 1.0212661 0.24585061 -0.20466311
-0.34747785 -0.1270574 -0.16160959 -0.27525568 -0.18695593 0.14766587 -0.77774507 0.385228
0.11200768 -0.1080663 0.29574898 0.49208215 0.34331718 0.0057349904 -0.30638903 -0.30108124
-0.35515592 -0.015296191 -0.6405225 -0.366127 -0.4694799 0.3109573 0.017933637 -0.26089707
0.10482289 0.3307646 0.25585344 0.28380388 0.20945615 0.033589043 0.15394732 0.27120677
0.3952968 -0.33767766 0.40472555 0.08557686 0.26502642 -0.37982973 0.12412513 -0.018680155
0.52530414 0.39964917 -0.13027975 0.24427165 0.3365622 -0.3752157 0.10134211 -0.14754277
0.36600676 -0.273948 -0.49948788 0.056353267 0.87702715 0.11229049 0.060862206 -0.4503921
-0.3027479 0.023430597 -0.17235227 -0.3071019 -0.13917042 -0.42207062 0.55085844 -0.15444984
-0.5041621 -0.32986376 -0.5612923 -0.016991168 0.24864891 -0.30299696 0.49628124 -0.1486908
-0.27715957 0.28313288 0.078303605 -0.97902757 -0.036595374 -0.32655433 0.057946563 0.01782003
0.36526972 -0.21562487 0.97201705 -0.06191993 -0.43144742 0.21444528 -0.36070555 0.28647718
0.053038683 0.27177063 0.35879102 0.24728516 0.057976004 0.23245181 -0.050100952 -0.011742557
0.29924953 -0.27886736 0.15182884 0.1898748 -0.18863232 0.12781103 0.08639478 0.15275213
0.13812384 0.19662823 -0.08757423 -0.0014143973 -0.3259665 -0.0051461207 0.10083708 0.21693185
-0.35124448 -0.062309623 0.36214006 -0.3589463 -0.66656953 -0.34134972 -0.3538099 0.03481941
00000000: a8f6 ca3d 620d f63d fe18 393e 631b b0be
00000010: 7df0 ae3e e6ae 4bbf f1dd 8ebe 4e4d 7f3e
00000020: 7425 2a3f c486 dc3d 4ecf aebe 9883 093d
00000030: e875 9abd ed93 e4bd 79a9 dc3e e7aa 1ebe
00000040: 9f1d 88bf 4684 7dbe dd95 60be b1ce 263f
00000050: 7269 49be 9632 943e 2761 bb3e 6cc9 bd3d
00000060: e782 de3c ad64 a73e 51c9 973e d4fa 26be
00000070: dd5e 0dbf 9048 57be 6de8 51bd 987d 6c3f
00000080: eeb3 903d c2e7 b8be cd2b 8e3e 58fe d53e
00000090: 9e43 ccbe 8929 24bf 89c6 9dbe 3fb0 b43d
000000a0: 0ee8 7d3d 743a 983d c952 c8be c750 38be
000000b0: a21f 9bbe e87e 4bbe 7325 2ebe 83ec a4be
000000c0: 17bc 2f3f 761a db3e a787 063d d283 24bf
000000d0: 261b 5c3e cc8d c73e b47f f4bd 4299 c2be
000000e0: da7f 9d3e 7b69 c9be 5c8f 1c3f 9900 bebe
000000f0: 6f4e 1c3f 6931 30bd 43ba 713d 8eee 43bf
00000100: de6a ac3d 2ffe 79bd 4f5d c1be a8de b2be
00000110: 32eb cabe d9b8 823f 43c0 7b3e 3593 51be
00000120: 9ee8 b1be 561b 02be fc7c 25be 50ee 8cbe
00000130: 6071 3fbe b935 173e 4d1a 47bf 9b3c c53e
00000140: 4864 e53d dd51 ddbd 696c 973e 31f2 fb3e
00000150: 45c7 af3e 96ec bb3b 06df 9cbe 5227 9abe
00000160: ffd6 b5be e09c 7abc 48f9 23bf 0075 bbbe
00000170: ab5f f0be cc35 9f3e 90e9 923c 4d94 85be
00000180: 62ad d63d fa59 a93e 39ff 823e be4e 913e
00000190: ac7b 563e aa94 093d 5ea4 1d3e 9ddb 8a3e
000001a0: 5864 ca3e 16e4 acbe 3038 cf3e ec42 af3d
000001b0: 8bb1 873e 0b79 c2be 5135 fe3d 2007 99bc
000001c0: 557a 063f d19e cc3e 0e68 05be 5922 7a3e
000001d0: e151 ac3e 461c c0be 748c cf3d 7415 17be
000001e0: 3d65 bb3e ea42 8cbe e0bc ffbe afd2 663d
000001f0: da84 603f 8ef8 e53d a64a 793d cb99 e6be
00000200: c601 9bbe 86f1 bf3c 1d7d 30be 763c 9dbe
00000210: b182 0ebe a419 d8be 0f05 0d3f 1928 1ebe
00000220: c410 01bf e7e3 a8be dab0 0fbf 1031 8bbc
00000230: d29d 7e3e 6b22 9bbe 9318 fe3e 6742 18be
00000240: dce7 8dbe cbf6 903e a45d a03d 8da1 7abf
00000250: 08e5 15bd 2132 a7be 6059 6d3d 50fb 913c
00000260: a204 bb3e c4cc 5cbe 1cd6 783f c19f 7dbd
00000270: ade6 dcbe 8b97 5b3e 66ae b8be 23ad 923e
00000280: 173f 593d 8525 8b3e 75b3 b73e 5238 7d3e
00000290: 3f78 6d3d d907 6e3e a836 4dbd db63 40bc
000002a0: 3c37 993e b4c7 8ebe 0579 1b3e 8a6e 423e
000002b0: d528 41be e5e0 023e bfef b03d 0e6b 1c3e
000002c0: 5670 0d3e e958 493e 1e5a b3bd 4c63 b9ba
000002d0: 15e5 a6be caa0 a8bb ac83 ce3d 6223 5e3e
000002e0: 51d6 b3be 6038 7fbd 6c6a b93e cfc7 b7be
000002f0: 4da4 2abf 64c5 aebe 9226 b5be cc9e 0e3d
