PARCIAL2/5g/gesture_model_0.89.tflite (tflite, 134972 bytes, 8 tensors)

sequential_27/dense_99/BiasAdd/ReadVariableOp f4 [32]
-0.008690594 -0.019164177 0.018523527 0.0077015725 0.0 0.0 -0.019317383 -0.0050716987
-0.00039772084 0.034886975 -0.00018302347 0.01999785 0.0 -0.019202787 -0.0010739893 -0.030024327
-0.0080288695 0.04154055 -0.009773898 -0.020288387 0.043398328 -0.0049948366 0.025291404 -0.013540053
0.0 0.028194513 0.0 0.010150108 0.07628407 -0.029226983 0.0 0.025965454
00000000: fe62 0ebc 31fe 9cbc a7be 973c 795d fc3b
00000010: 0000 0000 0000 0000 7d3f 9ebc 7e30 a6bb
00000020: 3085 d0b9 a5e5 0e3d fde9 3fb9 88d2 a33c
00000030: 0000 0000 2a4f 9dbc 1ac5 8cba 94f5 f5bc
00000040: 858b 03bc 6c26 2a3d b322 20bc d533 a6bc
00000050: 72c2 313d baab a3bb eb2f cf3c 19d7 5dbc
00000060: 0000 0000 2ef8 e63c 0000 0000 a34c 263c
00000070: d33a 9c3d 6d6d efbc 0000 0000 81b5 d43c

sequential_27/dense_100/BiasAdd/ReadVariableOp f4 [16]
0.025008628 -0.031120496 0.0 0.011235689 -0.025316495 -0.017547183 -0.020237029 0.061761167
0.0 0.0 0.023175394 0.01612944 0.09982453 0.026432741 0.03483065 0.015989993
00000000: e5de cc3c 69f0 febc 0000 0000 e515 383c
00000010: 8a64 cfbc 1cbf 8fbc 20c8 a5bc 47f9 7c3d
00000020: 0000 0000 0000 0000 53da bd3c e321 843c
00000030: ce70 cc3d 7a89 d83c 95aa 0e3d 72fd 823c

sequential_27/dense_101/BiasAdd/ReadVariableOp f4 [5]
-0.022303257 -0.070556626 0.027711442 0.0034042103 0.061747085
00000000: 52b5 b6bc fe7f 90bd 1b03 e33c 2c19 5f3b
00000010: 83ea 7c3d

sequential_27/dense_98/BiasAdd/ReadVariableOp f4 [64]
0.0 0.0 0.0 0.007777692 0.0 0.0009086684 -7.341407e-05 -0.0022894002
0.011750296 0.0 0.0 0.0 -0.024051692 0.0 -0.0021552707 0.002508442
-0.00092022517 0.03922562 -0.0011692181 0.0 0.0 -0.0008918382 0.018322693 0.0
-0.0005906948 -0.0031155369 0.032409415 0.016786074 0.005638826 -0.020211872 0.01244247 0.0
0.0 0.0 -0.0021334752 0.0 -0.010980983 0.0058012437 0.01535337 0.0067023598
0.0 -0.0024776566 -0.0086809695 0.0035995792 0.035946023 0.0 0.0 0.0
-0.012764679 0.0449019 0.0 -0.0020442428 0.0049670986 -0.0038541532 -0.0056318217 0.0
0.010307362 -0.008482537 -0.0002609309 0.025421513 -0.0024523386 0.014856055 -0.0025425907 -0.009376017
00000000: 0000 0000 0000 0000 0000 0000 02dc fe3b
00000010: 0000 0000 b433 6e3a e1f5 99b8 c309 16bb
00000020: 5084 403c 0000 0000 0000 0000 0000 0000
00000030: 0e08 c5bc 0000 0000 713f 0dbb ac64 243b
00000040: 443b 71ba 0bab 203d 7340 99ba 0000 0000
00000050: 0000 0000 40ca 69ba 7919 963c 0000 0000
00000060: dbd8 1aba 092e 4cbb bcbf 043d f382 893c
00000070: e7c5 b83b 5e93 a5bc 80db 4b3c 0000 0000
00000080: 0000 0000 0000 0000 c6d1 0bbb 0000 0000
00000090: 95e9 33bc 5c18 be3b b48c 7b3c 789f db3b
000000a0: 0000 0000 2e60 22bb a03a 0ebc ebe6 6b3b
000000b0: 233c 133d 0000 0000 0000 0000 0000 0000
000000c0: f222 51bc 0eeb 373d 0000 0000 b4f8 05bb
000000d0: 0bc3 a23b f695 7cbb 258b b8bb 0000 0000
000000e0: 36e0 283c 57fa 0abc 8dcd 88b9 c740 d03c
000000f0: 6ab7 20bb d066 733c 98a1 26bb de9d 19bc

sequential_27/dense_98/MatMul f4 [64, 474]
-0.07500994 -0.0023626238 0.04221248 0.0589517 0.10372544 0.011847623 -0.005158156 0.0016053095
-0.018994756 0.0054702163 -0.028605856 -0.0796525 0.08375942 -0.046217922 0.03307397 -0.06856659
-0.066298515 -0.020636477 0.029051907 -0.068701014 -0.038269974 -0.09107559 -0.010073669 0.025314577
0.0076642185 -0.036123887 0.031058036 0.08101409 0.09654296 0.01116094 0.055886723 0.016390473
0.060780637 -0.07112933 0.061944775 -0.10413575 -0.049949557 0.02575288 -0.023913138 -0.064497665
0.05831494 -0.026059985 0.06123311 0.017971039 0.04710377 0.08202962 -0.06938881 -0.01824034
-0.030573249 0.036202334 0.009045243 0.0061984435 0.0444204 -0.0022493973 0.011920668 -0.017963178
0.08509343 -0.085090056 0.10350361 0.07096111 0.002590306 -0.09094323 0.019648962 0.10072436
-0.07226676 -0.045042075 0.05303424 -0.016580671 0.024003498 -0.02469495 0.01392664 0.07079355
-0.019358203 0.060346685 0.060407214 0.0996357 0.08327668 -0.0730003 0.026709177 -0.09101829
-0.017824903 0.051451035 0.06863543 0.002312012 -0.10557914 -0.044066675 0.045571454 -0.031235993
0.089448504 -0.013015211 -0.05582733 0.08772387 -0.08038269 -0.06263607 -0.07055768 -0.09178892
0.026800327 -0.10282646 -0.06011533 -0.01883737 -0.041911975 -0.05726662 0.09685779 -0.07028714
0.087879755 -0.02519355 0.07458944 -0.04321862 0.065440334 0.070829906 0.02247911 -0.054259535
0.017382644 -0.032622173 -0.037208207 0.07268337 0.09919252 -0.028102644 0.008816473 -0.027540818
-0.059107095 -0.084613636 -0.09545894 0.05349744 0.07476679 0.08251763 0.06788311 -0.03976845
-0.065539844 -0.039854616 0.0656778 0.09215314 0.02972842 0.051381312 -0.07668714 0.06270807
-0.0059723184 -0.002579987 0.035586514 -0.03113208 0.016685814 -0.030706443 0.026630215 -0.09513812
0.0034693256 -0.06652734 -0.0066933483 -0.0891548 0.013200298 -0.062378094 0.00587105 -0.08781744
-0.055723976 0.08310697 -0.03286311 0.04486469 -0.09241832 -0.06132494 -0.07444024 0.031266935
0.086257346 0.058801733 0.04802244 -0.048781667 0.008325271 -0.06586376 0.08572624 -0.006279893
-0.06427792 -0.02488336 0.0033655688 0.012137726 -0.050003715 0.061593466 -0.09918574 -0.0015695319
0.08679346 -0.02814003 0.0117622465 -0.023140222 0.025337927 0.06161096 0.00905972 -0.009983659
-0.023883104 0.01130712 -0.0066369995 0.085552506 -0.02129481 -0.09394913 0.07011557 -0.018596612
0.08687136 -0.0431976 -0.07996406 0.0992321 -0.0989508 0.0068619624 0.071074344 -0.05932496
-0.015632331 0.04241196 -0.038047627 0.019304775 0.06349472 0.062064447 0.02968239 -0.05913872
-0.07833621 -0.05181851 0.013204455 -0.040670313 -0.032868795 0.032655872 0.02636411 -0.003818825
0.027089171 0.0020327345 -0.09114013 0.024626993 -0.016367286 0.029549412 0.06672662 -0.09387468
-0.074063316 0.022379242 -0.10354456 0.02931615 -0.047187638 -0.03743975 -0.03436076 -0.068210274
-0.00265041 -0.07208769 -0.089355595 0.02842898 -0.0055526495 0.10252092 -0.07874452 0.025196694
0.005173184 -0.046572004 0.011724375 0.07189878 -0.0030465126 -0.071652256 0.0044145957 -0.04555881
0.08961264 -0.03803637 0.08044707 -0.044492614 -0.07024963 0.094734766 0.09692127 0.016755633
00000000: d09e 99bd 40d6 1abb fee6 2c3d 5677 713d
00000010: 016e d43d 881c 423c c005 a9bb 4069 d23a
00000020: e49a 9bbc 803f b33b d456 eabc da20 a3bd
00000030: 0f8a ab3d 014f 3dbd 9278 073d a46c 8cbd
00000040: 84c7 87bd d40d a9bc 44fe ed3c 1eb3 8cbd
00000050: fac0 1cbd d785 babd 080c 25bc 8460 cf3c
00000060: 2024 fb3b a4f6 13bd 6c6d fe3c b7ea a53d
00000070: 51b8 c53d 60dc 363c 7ae9 643d 5045 863c
00000080: 1ef5 783d 41ac 91bd ceb9 7d3d 2045 d5bd
00000090: e897 4cbd b4f7 d23c 7ce5 c3bc 5a17 84bd
000000a0: a6db 6e3d c07b d5bc 92cf 7a3d 0038 933c
000000b0: e2ef 403d 25ff a73d b81b 8ebd c46c 95bc
000000c0: c074 fabc e648 143d 8032 143c 501c cb3b
000000d0: 2af2 353d a06a 13bb e84e 433c 8427 93bc
000000e0: 7745 ae3d b243 aebd b3f9 d33d 0f54 913d
000000f0: 20c2 293b 7240 babd dcf6 a03c 9348 ce3d
00000100: 9800 94bd 0a7e 38bd 6e3a 593d 30d4 87bc
00000110: fca2 c43c 104d cabc 902c 643c 35fc 903d
00000120: 1895 9ebc 162e 773d 8e6d 773d cd0d cc3d
00000130: f78c aa3d 2e81 95bd 34cd da3c cc67 babd
00000140: 8805 92bc 52be 523d bb90 8c3d 2085 173b
00000150: e039 d8bd 427f 34bd 22a9 3a3d a0e2 ffbc
00000160: c730 b73d c03d 55bc 33ab 64bd 93a8 b33d
00000170: ae9f a4bd 5747 80bd 8c80 90bd d4fb bbbd
00000180: 5c8c db3c ae96 d2bd 7e3b 76bd d450 9abc
00000190: e4ab 2bbd 6790 6abd 615d c63d b4f2 8fbd
000001a0: 4dfa b33d b462 cebc 59c2 983d 0206 31bd
000001b0: 9505 863d 450f 913d 1c26 b83c 3f3f 5ebd
000001c0: 0c66 8e3c d49e 05bd a267 18bd 05db 943d
000001d0: 7325 cb3d 8437 e6bc f872 103c 489d e1bc
000001e0: 481a 72bd ea49 adbd fa7f c3bd 2220 5b3d
000001f0: 551f 993d 01ff a83d 4d06 8b3d 3ee4 22bd
00000200: c139 86bd 983e 23bd 1582 863d c9ba bc3d
00000210: 0489 f33c 3675 523d 260e 9dbd 176d 803d
00000220: 70b3 c3bb 0015 29bb 2ac3 113d b408 ffbc
00000230: b0b0 883c 148c fbbc 9c27 da3c c6d7 c2bd
00000240: a05d 633b 7c3f 88bd e053 dbbb cb96 b6bd
00000250: 1046 583c 2c80 7fbd f061 c03b a1d9 b3bd
00000260: d33e 64bd fd33 aa3d 789b 06bd 0ac4 373d
00000270: d145 bdbd dc2f 7bbd 2074 98bd c211 003d
00000280: b1a7 b03d 16da 703d 2eb3 443d 49cf 47bd
00000290: b866 083c 94e3 86bd 3d91 af3d 90c7 cdbb
000002a0: 24a4 83bd 30d8 cbbc e090 5c3b 50dd 463c
000002b0: b2d0 4cbd 6e49 7c3d e521 cbbd c0b8 cdba
000002c0: c5c0 b13d ec85 e6bc 70b6 403c 9090 bdbc
000002d0: 7c91 cf3c c65b 7c3d 386f 143c 8092 23bc
000002e0: 80a6 c3bc 8041 393c 307b d9bb 2736 af3d
000002f0: 7472 aebc 6768 c0bd c198 8f3d ec57 98bc
00000300: 9de9 b13d f7ef 30bd 32c4 a3bd 333a cb3d
00000310: b8a6 cabd 50da e03b 6d8f 913d bbfe 72bd
00000320: 600f 80bc 2ab8 2d3d d4d7 1bbd 0c25 9e3c
00000330: 8509 823d 4a37 7e3d 7c28 f33c 713b 72bd
00000340: bc6e a0bd a53f 54bd 8057 583c ea95 26bd
00000350: 6ea1 06bd 2ac2 053d 8cf9 d73c 4045 7abb
00000360: 1cea dd3c a037 053b ada7 babd 8cbe c93c
00000370: b014 86bc 9c11 f23c f7a7 883d 5e41 c0bd
00000380: 82ae 97bd ac54 b73c 2c0f d4bd 6c28 f03c
00000390: d347 41bd 6c5a 19bd debd 0cbd d4b1 8bbd
000003a0: 80b2 2dbb b6a2 93bd 1100 b7bd e4e3 e83c
000003b0: 00f3 b5bb 7df6 d13d cf44 a1bd 4c69 ce3c
000003c0: d083 a93b 49c2 3ebd 9817 403c ab3f 933d
000003d0: 00a8 47bb 6bbe 92bd 50a8 903b e09b 3abd
000003e0: d586 b73d 06cc 1bbd 6fc1 a43d e33d 36bd
000003f0: 0adf 8fbd 4d04 c23d a97e c63d 1c43 893c

sequential_27/dense_99/MatMul f4 [32, 64]
0.14454126 -0.0068707466 0.150253 0.008157717 -0.035709202 0.018455392 -0.24754144 0.0022437454
0.17018907 -0.13680059 0.21903217 0.117440164 0.25544468 -0.092870176 -0.034711365 0.23745206
-0.057798833 0.122023396 -0.21384604 0.0008816123 -0.19755274 0.23300795 -0.14708145 -0.23780823
-0.18367809 0.11103683 -0.2646675 0.023000915 -0.17122069 -0.052417688 -0.084961236 0.1285702
0.20889443 -0.10289061 -0.007701237 -0.005611658 0.29533848 0.015375009 0.16729017 0.123673856
-0.11654854 0.13726813 0.08540619 -0.27888218 -0.10877128 -0.150953 -0.13169861 -0.11033481
0.07556284 -0.12799986 0.054967403 -0.072669685 -0.080722 0.1694797 0.07072393 -0.028090715
-0.09980183 0.2171916 0.13326989 -0.05641751 -0.0459319 -0.13369974 0.03008124 -0.0867514
-0.23104256 0.22823042 -0.2335825 0.06663285 -0.13130635 0.073276065 -0.11286212 -0.12181674
-0.12971129 0.24280882 0.11098516 0.10089594 0.19558969 0.22707832 -0.03888713 0.113364935
-0.19948024 0.1315273 -0.15490773 -0.14607 -0.047903776 0.24282956 0.058743943 -0.11678743
0.03591911 0.23946737 0.13729398 -0.2566089 -0.17842682 0.11236941 -0.2000263 -0.0514974
0.11848962 -0.12770998 0.02025288 -0.10428953 -0.26692486 -0.24222977 -0.24285094 0.14120999
-0.027287722 0.12813087 -0.15539896 0.16448405 -0.14806554 0.19946712 0.2271263 -0.08102566
-0.18468346 -0.033513077 -0.08463383 0.2070853 0.011505132 0.11535936 0.24564716 -0.15621638
-0.055171456 0.013778353 0.022484934 0.049447764 0.03444769 -0.033012368 0.09799455 0.019226693
0.1692084 0.15609008 0.120167196 0.10073273 0.24124509 0.20406206 -0.18928128 -0.14781572
0.046324242 -0.24879658 0.22848916 -0.10383791 -0.023766654 0.045807183 -0.010498874 0.10885273
0.22306727 -0.032195143 -0.21852486 -0.1484654 -0.050136685 -0.14801241 0.22548956 -0.07857913
-0.16162531 -0.08863367 -0.15948725 -0.010360849 0.2704284 0.04015661 -0.1212683 -0.10986894
0.02006805 -0.13122487 -0.10779191 -0.019395173 0.20697725 -0.008638231 -0.2243283 -0.25798443
0.09613979 4.023528e-05 0.1207089 -0.067938305 -0.23365209 -0.13608742 0.0010816455 -0.10582936
0.07727297 0.09852645 0.13080281 -0.09374437 0.23751616 0.06313513 0.24275787 -0.08248997
0.2902221 0.20293944 -0.077180274 -0.17334616 -0.036659826 0.011456815 0.09119642 -0.22054231
-0.07983929 0.009467781 -0.20806968 -0.04491068 0.061042607 0.21167493 -0.14305972 0.012516587
0.27589768 -0.039268374 -0.08120954 0.21336818 -0.071606666 0.14023876 0.24197486 0.034641854
0.20677847 0.25761053 -0.19054775 0.15991914 0.1760118 -0.054930437 0.31304747 0.21851128
-0.11809446 0.1440926 -0.051651128 0.101292334 -0.0910348 0.18216017 0.16292685 0.17655647
0.2280823 0.15156507 -0.13005392 0.1855529 -0.060041793 0.19633429 0.13930804 0.27931347
-0.2010448 -0.21230413 -0.11449073 0.11740412 0.059554346 0.08706862 -0.19969732 -0.106300294
-0.078115374 0.09596287 -0.10535663 0.226914 -0.050981436 0.21064588 -0.1661516 -0.124756575
0.06504701 -0.11841546 0.08928957 0.21864271 0.11777071 -0.18608646 0.16397281 -0.17479604
00000000: a002 143e 0024 e1bb ecdb 193e f2a7 053c
00000010: d043 12bd c32f 973c 817b 7dbe cd0b 133b
00000020: 0b46 2e3e 7415 0cbe f849 603e 7884 f03d
00000030: a5c9 823e b832 bebd 812d 0ebd a226 733e
00000040: 78be 6cbd 67e7 f93d 75fa 5abe 001c 673a
00000050: 444b 4abe a399 6e3e 859c 16be 0084 73be
00000060: 1c16 3cbe 4767 e33d 8082 87be 6a6c bc3c
00000070: 7a54 2fbe eeb3 56bd 2800 aebd e8a7 033e
00000080: 6ce8 553e 50b8 d2bd a95a fcbb 00e2 b7bb
00000090: 9b36 973e 76e7 7b3c 1d4e 2b3e b848 fd3d
000000a0: 00b1 eebd 0490 0c3e 71e9 ae3d a5c9 8ebe
000000b0: 7ac3 debd 6c93 1abe 00dc 06be 38f7 e1bd
000000c0: b1c0 9a3d 6512 03be 8025 613d d8d3 94bd
000000d0: 9351 a5bd 168c 2d3e b5d7 903d 801e e6bc
000000e0: e764 ccbd 7a67 5e3e e777 083e 0c16 67bd
000000f0: 1723 3cbd 96e8 08be ef6c f63c b8aa b1bd
00000100: 6c96 6cbe 3cb5 693e 4030 6fbe ce76 883d
00000110: 2c75 06be c311 963d 4124 e7bd 0e7b f9bd
00000120: 09d3 04be e0a2 783e 304c e33d 88a2 ce3d
00000130: aa48 483e 3887 683e 1c48 1fbd e02b e83d
00000140: 8c44 4cbe 18af 063e 22a0 1ebe 6093 15be
00000150: c036 44bd 50a8 783e 7d9d 703d 402e efbd
00000160: eb1f 133d ef36 753e cb96 0c3e 3e62 83be
00000170: 85b5 36be ef21 e63d b2d3 4cbe f0ee 52bd
00000180: b0aa f23d 68c6 02be 5ee9 a53c c095 d5bd
00000190: 60aa 88be 150b 78be ebad 78be 5a99 103e
000001a0: 808a dfbc bd34 033e e820 1fbe 826e 283e
000001b0: 7e9e 17be 1c41 4c3e cc93 683e c8f0 a5bd
000001c0: a91d 3dbe 0245 09bd 8054 adbd 2b0e 543e
000001d0: 0580 3c3c 8741 ec3d ee8a 7b3e 30f7 1fbe
000001e0: 77fb 61bd 9abe 613c 5332 b83c bd89 4a3d
000001f0: 0519 0d3d fa37 07bd 5eb1 c83d 4c81 9d3c
00000200: f844 2d3e 14d6 1f3e 381a f63d f64c ce3d
00000210: f408 773e a5f5 503e f4d2 41be 015d 17be
00000220: 7dbe 3d3d 88c4 7ebe 10f9 693e f8a8 d4bd
00000230: 49b2 c2bc 50a0 3b3d 7803 2cbc 2eee de3d
00000240: bf6b 643e 0edf 03bd fbc4 5fbe 5007 18be
00000250: 205c 4dbd 9190 17be bce6 663e 18ee a0bd
00000260: 1b81 25be 9285 b5bd a050 23be 8dc0 29bc
00000270: 9775 8a3e 427b 243d 845b f8bd f802 e1bd
00000280: c065 a43c d05f 06be 01c2 dcbd a0e2 9ebc
00000290: d8f1 533e 5e87 0dbc 51b6 65be 8916 84be
000002a0: f0e4 c43d 4ec2 2838 3a36 f73d 3d23 8bbd
000002b0: 7e42 6fbe 805a 0bbe 00c6 8d3a 10bd d8bd
000002c0: 4a41 9e3d 3cc8 c93d 2cf1 053e 0cfd bfbd
000002d0: 7037 733e fe4c 813d 8595 783e 80f0 a8bd
000002e0: fe97 943e 5bcf 4f3e b110 9ebd a881 31be
000002f0: 9d28 16bd 5db5 3b3c 30c5 ba3d d8d5 61be
00000300: c882 a3bd c01e 1b3c 3810 55be 43f4 37bd
00000310: d007 7a3d 50c1 583e 3f7e 12be 5f12 4d3c
00000320: 7642 8d3e e0d7 20bd 3051 a6bd 307d 5a3e
00000330: 84a6 92bd c09a 0f3e 42c8 773e 9ee4 0d3d
00000340: bcbd 533e 87e5 833e f31e 43be d8c1 233e
00000350: 703c 343e bdfe 60bd c247 a03e 6cc1 5f3e
00000360: 82db f1bd 038d 133e 2290 53bd 5b72 cf3d
00000370: 7470 babd 3288 3a3e 4cd6 263e 38cb 343e
00000380: 688e 693e e033 1b3e db2c 05be 9401 3e3e
00000390: 62ee 75bd db0b 493e c4a6 0e3e 2d02 8f3e
000003a0: b0de 4dbe 4166 59be 1e7a eabd 9271 f03d
000003b0: 42ef 733d 0851 b23d 747d 4cbe f8b3 d9bd
000003c0: f4fa 9fbd 2e88 c43d 38c5 d7bd 255c 683e
000003d0: e9d1 50bd 8eb3 573e a523 2abe 6080 ffbd
000003e0: 5e37 853d ce83 f2bd 73dd b63d e0e3 5f3e
000003f0: c531 f13d 738d 3ebe 7de8 273e bcfd 32be

sequential_27/dense_100/MatMul f4 [16, 32]
-0.31964216 0.31100383 0.067356266 -0.10641954 0.32703593 -0.0383839 -0.35199928 0.069207676
0.29815543 0.28961885 0.20742339 0.044405665 -0.12746471 -0.09934391 -0.27894542 0.014499409
-0.014559109 -0.11612187 0.44968525 0.14579067 0.33131304 0.22644235 0.34264794 0.21219671
-0.21222396 -0.3342907 -0.32686526 0.11423717 -0.07134638 -0.37580314 -0.16498215 -0.12551841
0.25535488 -0.17351688 0.17373623 -0.105242774 0.00939554 0.057202727 -0.049060598 0.0017753073
0.10287012 0.08514653 -0.16454779 -0.21385287 -0.27622327 0.3162998 -0.13686869 0.14779936
0.31980774 0.19950373 -0.06274567 0.09471393 -0.06091676 0.0615561 -0.26704928 0.25143954
0.033462077 0.06063106 -0.2936986 -0.36645085 -0.278615 0.09892588 0.3275852 -0.06270083
0.22779742 0.0018339753 -0.1566949 -0.34953064 -0.28290018 0.26778254 0.27383742 -0.005651295
-0.22114679 0.13605753 0.13809246 -0.015998006 -0.32929915 -0.2562011 -0.32782948 0.18365762
-0.34030798 -0.30601612 0.22537616 -0.25503927 -0.027884603 0.14516309 -0.10828984 -0.2958503
0.06259102 -0.10651234 -0.2916952 -0.35086602 0.14901105 -0.23137152 0.34304342 0.13775393
0.28435478 -0.093763776 0.30424654 0.023072692 0.2176781 -0.15515241 0.0735786 -0.024855297
0.057062715 0.11640348 -0.036102828 0.22150518 0.20662287 0.28872216 -0.03548809 -0.36497986
0.17269263 -0.29535222 -0.33022118 -0.2841529 -0.15140729 -0.057637166 0.022093957 -0.47110742
-0.24178305 0.31582224 0.30591086 0.122204125 0.39590147 -0.28911227 0.21441957 0.3573521
0.1483105 -0.087905735 0.30082193 -0.36697242 -0.33244616 0.28846553 -0.10927187 -0.004912729
0.21294743 -0.29249477 0.1495598 0.028239323 -0.1932229 0.38445133 0.039932586 0.45017013
-0.17622252 -0.12371113 -0.066637725 0.22901274 -0.12930481 -0.13568574 0.36792907 0.100864075
-0.072714955 0.050112657 -0.09416407 0.024575291 -0.025915207 0.4184903 -0.3301791 0.014262536
0.24554695 0.032069154 0.35783347 0.17245466 0.092913985 -0.16641253 -0.27497822 0.20204306
-0.2699129 0.045520153 0.30572465 0.4290449 -0.20319577 -0.047267128 -0.26179653 0.26352403
0.05189314 -0.26469958 0.073196135 -0.070941664 -0.112997346 -0.34993112 0.0060049654 -0.21346308
0.10265085 0.10460058 0.35354844 0.12324021 0.235659 0.3524422 0.028727382 0.008224284
-0.33317372 0.24064088 0.10822893 0.3344259 -0.13867138 -0.15743804 -0.33818963 0.09094695
0.1525175 0.29361635 -0.12487824 -0.18180293 -0.07160622 0.27030984 0.26975855 -0.2710818
-0.1325509 -0.2731153 0.2914549 -0.038599234 -0.1854682 0.28280503 -0.3631936 0.23231384
-0.15644851 -0.21165848 -0.021458387 -0.12732841 -0.16437247 0.20971817 -0.043496728 0.29545075
0.31871858 -0.104840025 -0.15009359 -0.2723423 0.12970388 0.23601225 -0.26675972 0.08489376
0.037646126 0.39577767 0.10693813 -0.16820936 -0.30846167 0.21396896 0.15039577 0.12329825
0.30714646 -0.039283223 0.5062072 -0.07209069 -0.106185734 0.26890615 0.17502975 0.7510199
-0.33524606 -0.34454352 0.20693192 -0.40356597 0.29668453 0.13607982 -0.20995428 -0.121525854
00000000: 23a8 a3be e53b 9f3e 15f2 893d 7df2 d9bd
00000010: 4171 a73e 7038 1dbd 4039 b4be c1bc 8d3d
00000020: d4a7 983e ec48 943e cc66 543e b7e2 353d
00000030: 1c86 02be d274 cbbd efd1 8ebe ee8e 6d3c
00000040: 5489 6ebc 4ed1 edbd 253d e63e 264a 153e
00000050: dda1 a93e 81e0 673e 8d6f af3e 184a 593e
00000060: 3d51 59be 2728 abbe e25a a7be 2df5 e93d
00000070: 0d1e 92bd 4569 c0be 15f1 28be e687 00be
00000080: e0bd 823e 69ae 31be e9e7 313e 8689 d7bd
00000090: c0ef 193c 684d 6a3d c4f3 48bd 6eb1 e83a
000000a0: 92ad d23d 4e61 ae3d 377f 28be 3ffc 5abe
000000b0: 236d 8dbe 0cf2 a13e 4e27 0cbe b758 173e
000000c0: d7bd a33e b54a 4c3e cd80 80bd 60f9 c13d
000000d0: da83 79bd 4022 7c3d afba 88be afbc 803e
000000e0: 880f 093d 4658 783d aa5f 96be 729f bbbe
000000f0: a0a6 8ebe a799 ca3d 3fb9 a73e 4b69 80bd
00000100: ba43 693e 0062 f03a a174 20be aef5 b2be
00000110: 4bd8 90be cb1a 893e 6b34 8c3e 802e b9bb
00000120: 4e74 62be aa52 0b3e 1c68 0d3e 400e 83bc
00000130: e699 a8be ca2c 83be 44d9 a7be be10 3c3e
00000140: d93c aebe 25ae 9cbe 02c9 663e 8294 82be
00000150: 406e e4bc a2a5 143e 10c7 ddbd b179 97be
00000160: b82f 803d 2423 dabd 1359 95be b6a4 b3be
00000170: 5a96 183e a8ec 6cbe 63a3 af3e 5e0f 0d3e
00000180: f396 913e 3907 c0bd 34c6 9b3e f102 bd3c
00000190: 02e7 5e3e 46e0 1ebe 61b0 963d 569d cbbc
000001a0: 98ba 693d f364 ee3d 8fe0 13bd 41d2 623e
000001b0: f294 533e 64d3 933e f65b 11bd a4de babe
000001c0: 56d6 303e 6838 97be c012 a9be 7d7c 91be
000001d0: 830a 1bbe f314 6cbd 63fe b43c fe34 f1be
000001e0: fa95 77be 74b3 a13e 59a0 9c3e 2846 fa3d
000001f0: 99b3 ca3e 8606 94be ce90 5b3e dbf6 b63e
00000200: b5de 173e ec07 b4bd 5505 9a3e cfe3 bbbe
00000210: 6236 aabe c1b1 933e eec9 dfbd f5fa a0bb
00000220: e40e 5a3e e0c1 95be 3426 193e 2756 e73c
00000230: 39dc 45be ced6 c43e 5a90 233d b37c e63e
00000240: ad73 34be 435c fdbd 5c79 88bd 5182 6a3e
00000250: 7b68 04be 34f1 0abe 3361 bc3e d391 ce3d
00000260: 94eb 94bd ee42 4d3d 18d9 c0bd 1f52 c93c
00000270: 214c d4bc 5c44 d63e 3c0d a9be 69ad 693c
00000280: a970 7b3e f25a 033d f335 b73e f497 303e
00000290: b049 be3d 0c68 2abe f2c9 8cbe 60e4 4e3e
000002a0: 0632 8abe 5773 3a3d f187 9c3e c6ab db3e
000002b0: 8d12 50be 2d9b 41bd 320a 86be 9fec 863e
000002c0: e78d 543d b486 87be dbe7 953d dd49 91bd
000002d0: 276b e7bd 2c2a b3be 4dc5 c43b 1196 5abe
000002e0: 9c3a d23d d438 d63d 4d04 b53e 5d65 fc3d
000002f0: 9850 713e 4e73 b43e b055 eb3c 26bf 063c
00000300: bf95 aabe 906a 763e 21a7 dd3d df39 ab3e
00000310: dfff 0dbe 7037 21be 3127 adbe 6542 ba3d
00000320: 8c2d 1c3e e254 963e 2ac0 ffbd 8c2a 3abe
00000330: 48a6 92bd 0d66 8a3e cb1d 8a3e 3ccb 8abe
00000340: 6cbb 07be c5d5 8bbe 9439 953e 3b1a 1ebd
00000350: 60eb 3dbe d2cb 903e 83f4 b9be aee3 6d3e
00000360: 0a34 20be 00bd 58be 80c9 afbc 6162 02be
00000370: 4251 28be 5cc0 563e a029 32bd 5245 973e
00000380: 152f a33e 5eb6 d6bd 22b2 19be 7370 8bbe
00000390: 18d1 043e 32ad 713e bb94 88be c8dc ad3d
000003a0: d332 1a3d 5fa3 ca3e 6102 db3d 133f 2cbe
000003b0: b0ee 9dbe ae1a 5b3e 5901 1a3e cb83 fc3d
000003c0: 4d42 9d3e 72e7 20bd cc96 013f 49a4 93bd
000003d0: e877 d9bd 11ae 893e 003b 333e d742 403f
000003e0: 5fa5 abbe 0268 b0be f6e5 533e 33a0 cebe
000003f0: 09e7 973e 8258 0b3e 41fe 56be 8ce2 f8bd

sequential_27/dense_101/MatMul f4 [5, 16]
0.30452326 -0.45730492 0.06717265 -0.3124696 0.50435317 0.4485765 -0.46930447 0.48046225
-0.05922103 -0.059850335 0.5624393 -0.3250089 -0.8200713 -0.6858614 -0.6437024 -0.34856248
-0.24994567 0.3553889 0.5230966 0.17721352 -0.4862384 0.48550496 0.15242392 -0.9995648
0.382515 -0.28035086 -0.57432795 0.33956388 0.49677536 0.1665679 0.48460007 0.31915364
0.65032095 0.08796783 0.12023729 0.39214593 -0.63770723 -0.57071584 0.30332142 0.66720504
-0.36885533 0.08388567 0.09959391 0.14800328 0.65837216 -0.54439366 -0.7444954 -0.69370896
0.12183963 -0.4331255 0.002230227 -0.3904303 -0.35559806 -0.4345362 -0.4530802 0.029835356
0.016006231 0.474613 0.73263085 0.504278 -0.3907852 -0.349658 0.7327815 -0.1263528
0.27531734 -0.14574927 0.37736094 -0.6488134 -0.43695426 -0.27725786 -0.41147438 -0.104303375
-0.45268428 0.11505598 -0.4234718 0.24968955 0.5046254 0.7114093 0.27554843 -0.50234634
00000000: 79ea 9b3e df23 eabe d091 893d 04fc 9fbe
00000010: 4a1d 013f d2ab e53e ad48 f0be 26ff f53e
00000020: c091 72bd a025 75bd 06fc 0f3f 9167 a6be
00000030: 31f0 51bf 9d94 2fbf aec9 24bf c876 b2be
00000040: c2f1 7fbe 89f5 b53e a9e9 053f 7677 353e
00000050: 3df4 f8be 1b94 f83e 0415 1c3e 7be3 7fbf
00000060: 02d9 c33e 268a 8fbe 2807 13bf 51db ad3e
00000070: 5759 fe3e c790 2a3e 801d f83e 1b68 a33e
00000080: 6f7b 263f 7a28 b43d f83e f63d 5ac7 c83e
00000090: c840 23bf 6f1a 12bf f24c 9b3e f3cd 2a3f
000000a0: 9bda bcbe 40cc ab3d e4f7 cb3d 2c8e 173e
000000b0: 148b 283f 625d 0bbf 4097 3ebf e996 31bf
000000c0: 0e87 f93d a0c2 ddbe 0029 123b 7be6 c7be
000000d0: f310 b6be 877b debe 21fa e7be 4769 f43c
000000e0: 801f 833c 7a00 f33e b28d 3b3f 5d18 013f
000000f0: ff14 c8be 6006 b3be 9297 3b3f a162 01be
00000100: 65f6 8c3e 4c3f 15be 7435 c13e a318 26bf
00000110: 78b8 dfbe bef4 8dbe c5ac d2be 029d d5bd
00000120: 3cc6 e7be 78a2 eb3d 4cd1 d8be 9eae 7f3e
00000130: 212f 013f eb1e 363f af14 8d3e c599 00bf
