PARCIAL2/0.92/gesture_model.tflite (tflite, 121200 bytes, 8 tensors)

sequential_8/dense_27/BiasAdd/ReadVariableOp f4 [6]
0	0xbdce7c03	-0.10082247
1	0x3cc7c090	0.024383813
2	0x3d439ff5	0.04775997
3	0xbd838f4d	-0.06423817
4	0xbc868015	-0.016418496
5	0x3ddfefc7	0.10934406

sequential_8/dense_26/BiasAdd/ReadVariableOp f4 [16]
0	0xbd0edc0d	-0.034877826
1	0x3d92e27e	0.07172106
2	0x3d3ad03d	0.045608748
3	0x00000000	0.0
4	0x3c679ae7	0.014136053
5	0x3dfc1aa4	0.12309769
6	0x3cf27318	0.029595897
7	0x3ca84780	0.020541906
8	0x00000000	0.0
9	0x3bc9ec01	0.006162167
10	0xbd03e029	-0.032196198
11	0xbd499565	-0.04921474
12	0xbcc0ba1e	-0.023526248
13	0xbd6efbc8	-0.058345586
14	0xbba04c91	-0.00489194
15	0x3d40b2fe	0.0470457

sequential_8/dense_25/BiasAdd/ReadVariableOp f4 [32]
0	0x00000000	0.0
1	0x3a4a0905	0.00077070325
2	0x00000000	0.0
3	0xbca18f5e	-0.019721683
4	0x3d0122b6	0.031527244
5	0x3ca3a19b	0.01997452
6	0x3d1ef166	0.038804434
7	0xbaf900c2	-0.0018997418
8	0xbc974afc	-0.018468373
9	0xbb803ec6	-0.003913733
10	0xb91753e5	-0.00014431735
11	0xbb8ba3ec	-0.0042614844
12	0x00000000	0.0
13	0x00000000	0.0
14	0x3c746458	0.014916502
15	0x00000000	0.0
16	0x3d801316	0.0625364
17	0x3da18eda	0.07888575
18	0xbb6dc292	-0.0036279303
19	0xbd620296	-0.055178247
20	0xbcc70f0e	-0.02429917
21	0xbb09fb75	-0.002105442
22	0x00000000	0.0
23	0x3c54d863	0.012991044
24	0xbafca648	-0.001927563
25	0xbc1ab09c	-0.009441521
26	0xbb43a136	-0.0029850728
27	0x3b490172	0.0030671027
28	0xbb95b39f	-0.0045685316
29	0x3d7ec48f	0.06219917
30	0x3d22bc44	0.039730325
31	0x00000000	0.0

sequential_8/dense_24/BiasAdd/ReadVariableOp f4 [64]
0	0x3b9d1276	0.0047934605
1	0x3d23d61b	0.03999911
2	0x3ca0f280	0.019646883
3	0xbb3b1a7c	-0.0028549721
4	0x00000000	0.0
5	0xb95a008a	-0.00020790301
6	0x00000000	0.0
7	0xbd2240f7	-0.039612737
8	0x00000000	0.0
9	0xbca54e1d	-0.020178849
10	0xbbcc670f	-0.0062378715
11	0xbd2e7963	-0.042596232
12	0x3da8d7f1	0.082443126
13	0x3d1b103d	0.037857283
14	0x00000000	0.0
15	0x00000000	0.0
16	0x00000000	0.0
17	0xbb93007f	-0.004486143
18	0x3af2ce7a	0.001852467
19	0xbd5b9cc1	-0.05361629
20	0x00000000	0.0
21	0x3ca2ce25	0.019873688
22	0x3cba9a49	0.022778647
23	0x00000000	0.0
24	0xbc874f48	-0.016517296
25	0xbbf260f0	-0.0073968098
26	0x00000000	0.0
27	0xbbdb759c	-0.0066973697
28	0x00000000	0.0
29	0x3ca7cde6	0.020483922
30	0x00000000	0.0
31	0x3b8eb481	0.004355014
32	0x3d37d5dc	0.044881687
33	0x00000000	0.0
34	0x3cdbfeb5	0.026854852
35	0x3da75f47	0.081724696
36	0xbc0a1851	-0.008428649
37	0x3be29d5b	0.006915731
38	0xbb40184e	-0.0029311362
39	0xbd7e34a8	-0.062061936
40	0x3c8856a7	0.016642882
41	0x00000000	0.0
42	0x3c3504f1	0.011048541
43	0x3a8fc3b6	0.0010968361
44	0x00000000	0.0
45	0xba7bac0c	-0.0009600527
46	0x00000000	0.0
47	0x00000000	0.0
48	0x3ca05d0a	0.019575614
49	0xbbf4d46d	-0.007471612
50	0xbd07073c	-0.032965884
51	0x3a1c92ef	0.00059728225
52	0xbce01958	-0.027355835
53	0xbbbd5478	-0.0057778917
54	0x00000000	0.0
55	0x3c7776b5	0.015103986
56	0x00000000	0.0
57	0x3cb3091e	0.021854933
58	0x00000000	0.0
59	0x3b0db146	0.0021620556
60	0x00000000	0.0
61	0x3c08a6fc	0.008340593
62	0x00000000	0.0
63	0x00000000	0.0

sequential_8/dense_24/MatMul f4 [64, 420]
0	0x3e1bd0b6	0.15216336
1	0xbdd4b320	-0.10385728
2	0x3d8f3f5a	0.06994505
3	0x3dc4a7e8	0.09602338
4	0x3dae3c7f	0.085076325
5	0x3d7f7f08	0.062377006
6	0x3ce498bd	0.027904863
7	0xbc8bdd77	-0.017073376
8	0x3d257308	0.040392905
9	0x3d91a24b	0.07111033
10	0x3d644ccf	0.055737313
11	0xbd9629f4	-0.07332221
12	0x3c02aa9a	0.007975245
13	0xbc1627ee	-0.009164793
14	0xbe01434a	-0.12623325
15	0x3db6fbb5	0.08934728
16	0x3dcda727	0.100416474
17	0xbcd6973c	-0.026195161
18	0x3e13c68a	0.14431205
19	0x3d136fd1	0.03599531
20	0xbe1da43d	-0.15394683
21	0x3d3c21cb	0.045930665
22	0xbba1ee3f	-0.004941731
23	0x3cfc4955	0.030796686
24	0xbbed0997	-0.007233809
25	0x3d0d323e	0.034471743
26	0xbc2d4364	-0.010575149
27	0x3c35a471	0.011086569
28	0xbdc17987	-0.094470076
29	0x3d1a0b64	0.03760852
30	0x3dbb6f7b	0.091521226
31	0x3ced633e	0.028977986
32	0x3d69d03c	0.057083353
33	0xbdeb5b40	-0.11492014
34	0xbd048ed5	-0.032362778
35	0x39e77d92	0.0004415331
36	0x3dce3700	0.10069084
37	0x3d24219d	0.04007112
38	0xbe0f3b3e	-0.13987443
39	0xbdb59507	-0.08866315
40	0xbc82040f	-0.015871076
41	0xbb984471	-0.0046468307
42	0xbb4220a9	-0.0029621518
43	0xbdbcf466	-0.09226303
44	0x3d23f2c0	0.040026426
45	0x3db57ce9	0.08861715
46	0xbd16408d	-0.036682654
47	0xbc06ece5	-0.008235191
48	0x3dbba03f	0.09161424
49	0xbd1dce0e	-0.038526587
50	0x3d372cd7	0.044720497
51	0x3d1930d6	0.03740009
52	0xbdb37e8d	-0.08764372
53	0x3d21681a	0.03940592
54	0xbba77cfa	-0.005111334
55	0xbc7ef795	-0.015561958
56	0xbb126187	-0.0022335963
57	0x3d12b1c5	0.035814065
58	0xbd5ad7f1	-0.053428594
59	0xbd4ec31f	-0.05047905
60	0xba726015	-0.0009245885
61	0xbcf365df	-0.029711662
62	0xbc4c33b8	-0.012463503
63	0xbc90303d	-0.017601127
64	0xbd5cc35c	-0.053897247
65	0xbd788603	-0.06067468
66	0x3dca5b0f	0.09880649
67	0x3deeb440	0.11655474
68	0xbd196699	-0.03745136
69	0xbb2ed067	-0.002667451
70	0xbc006d2a	-0.007838527
71	0xbc99ae1e	-0.018759783
72	0x3dc33085	0.09530739
73	0xbd6ee75b	-0.058326107
74	0x3c1a5d44	0.00942165
75	0x3cec592d	0.028851116
76	0x3b1eb857	0.0024218762
77	0x3c969415	0.018381158
78	0xbd82dcd9	-0.063897796
79	0xbadeb9cc	-0.0016992628
80	0x3da5e3be	0.08100079
81	0x3d4e1773	0.05031533
82	0xbbf47609	-0.00746036
83	0xbd32b567	-0.04363003
84	0xbbecf1df	-0.0072309817
85	0x3dc449dd	0.09584401
86	0xbd72c1cc	-0.05926685
87	0x3d993121	0.07480074
88	0xbd4a13e0	-0.04933536
89	0xbdea74d1	-0.11448062
90	0xbc7c0d6a	-0.015384058
91	0x3cb6b3ce	0.022302534
92	0x3d1ef94a	0.03881196
93	0x3c139612	0.0090079475
94	0xbd01334e	-0.03154307
95	0x3ce791e9	0.028267818
96	0xbd42d9c2	-0.04757095
97	0x3dada3af	0.08478486
98	0xbce408c2	-0.027836207
99	0x3bd35f19	0.0064505455
100	0x3d90c612	0.07069029
101	0xbd82637a	-0.0636663
102	0x3dbb1db1	0.091365226
103	0x3dcf8f46	0.10134749
104	0x3d5749b2	0.052560516
105	0xbdf52b84	-0.119711906
106	0x3d9394f5	0.07206146
107	0x3d84a238	0.06476253
108	0xbcb18456	-0.021669548
109	0x3d03b75a	0.03215728
110	0x3cddd4f3	0.027079081
111	0xbd4e362f	-0.050344642
112	0xbdd85759	-0.10563535
113	0x3ccc354c	0.024927758
114	0xbd1e5ef0	-0.03866476
115	0x3dc2cfba	0.09512277
116	0xbd486f84	-0.048934475
117	0x3dce9c66	0.100884244
118	0x3d1fe1dd	0.03903376
119	0x3dc173b0	0.09445894
120	0x3d847b0e	0.06468783
121	0x3db509fe	0.088397965
122	0xbd746f47	-0.059676435
123	0xbbf72461	-0.0075421785
124	0xbcac11ec	-0.02100464
125	0x3db25053	0.08706727
126	0xbdb32dc0	-0.087489605
127	0x3db48fd3	0.08816495
128	0x3df3f01a	0.1191103
129	0xbdc700bc	-0.09716937
130	0x3d91e408	0.07123572
131	0x3d244bae	0.040111236
132	0xbdd4f83d	-0.1039891
133	0xbd709492	-0.058735438
134	0x3d84e706	0.06489377
135	0x3c90222d	0.017594421
136	0xbd40849c	-0.047001466
137	0xbdcfcb47	-0.10146194
138	0xbdc53976	-0.096301004
139	0x3da6bce4	0.08141497
140	0xbc8b3919	-0.016995
141	0x3db7cfbc	0.08975169
142	0x3dd00f23	0.10159137
143	0x3c532d80	0.012889266
144	0xbde781b6	-0.11304037
145	0xbd593811	-0.053031985
146	0xbd1828ea	-0.037148394
147	0xbd9cd62f	-0.0765804
148	0xbc5ee4a5	-0.013604318
149	0x3d8feb68	0.07027322
150	0x3d87251d	0.06598876
151	0xbcf7e654	-0.030261196
152	0x3d3c338d	0.0459476
153	0xbdbfc97b	-0.09364601
154	0xbb33fa1b	-0.0027462307
155	0xbdd2008e	-0.10254012
156	0xbd14db9f	-0.03634226
157	0x3cbfd9fe	0.023419376
158	0x3c1e7ce7	0.009673334
159	0xbcf63487	-0.030054344
160	0x3b890921	0.0041819965
161	0x3d335769	0.043784533
162	0xbdef0f0f	-0.11672794
163	0x3cad43fd	0.021150583
164	0x3d61f5b2	0.055165954
165	0xbd5c70c1	-0.053818468
166	0x3d8bda47	0.068287425
167	0xbd9af084	-0.07565406
168	0xbd187699	-0.03722248
169	0xbc764787	-0.015031702
170	0x3db96244	0.09051946
171	0x3d961abf	0.0732932
172	0xbd6b1618	-0.057394117
173	0x3dcf2b2c	0.10115656
174	0x3d8f7bae	0.07006012
175	0xbdaaf36b	-0.083472095
176	0xbcac625d	-0.021042997
177	0x3d49ed21	0.04929841
178	0xbd8dbc55	-0.06920687
179	0x3d657ff9	0.056030247
180	0xbcf44ece	-0.029822733
181	0x3de44583	0.11146071
182	0x3da1351c	0.07871458
183	0xbd90ae52	-0.07064499
184	0xbc9b22c1	-0.01893747
185	0x3d9ca8df	0.07649397
186	0xbc9e244d	-0.019304419
187	0x3d9b0db9	0.07570977
188	0x3c2c3f3f	0.010513126
189	0x3c625c74	0.013815988
190	0xbd7779f0	-0.060419023
191	0x3b72fc21	0.003707655
192	0xbd67bf15	-0.056578714
193	0x3ca343ee	0.019929852
194	0x3dccc01b	0.09997579
195	0x3dad89da	0.08473559
196	0x3adea018	0.0016984968
197	0xbc1f2483	-0.009713295
198	0xbc846e9c	-0.016166024
199	0xbd5d90e4	-0.054093257
200	0x3db623db	0.08893558
201	0xbcef2e8a	-0.029196996
202	0x3d71baf2	0.059016176
203	0xbda3faed	-0.08006845
204	0xbcb94e6b	-0.0226204
205	0x3d272f09	0.04081634
206	0x3e0c3768	0.13693011
207	0x3c9bc48e	0.019014623
208	0xbc160719	-0.009156966
209	0xb97bd2c3	-0.0002401574
210	0x3da96e4e	0.08272992
211	0xbcfea17d	-0.031082863
212	0x3d76a7e7	0.060218718
213	0x3daaceda	0.08340235
214	0xbd258c38	-0.040416926
215	0xbd20f386	-0.039294742
216	0x3d0db4dc	0.03459631
217	0xbd880837	-0.06642192
218	0xbda71db3	-0.081599616
219	0x3de4bb7a	0.11168571
220	0x3dca0427	0.09864073
221	0x3d1eec3a	0.038799502
222	0xbd9e9c85	-0.077446975
223	0xbcca80b8	-0.024719581
224	0x3deee995	0.11665646
225	0x3dfabea5	0.12243394
226	0x3d8b5596	0.068034336
227	0xbdc982ea	-0.09839423
228	0x3d0c6d60	0.034283996
229	0x3ccd2a69	0.025044637
230	0xbda875a0	-0.0822556
231	0x3ceb4a04	0.028721817
232	0x3d4cee0e	0.050031714
233	0x3cf8b816	0.030361217
234	0x3d24005f	0.040039416
235	0xbdf0eae3	-0.11763551
236	0xbd883b8f	-0.06651985
237	0x3da95974	0.08269015
238	0x3da30e09	0.07961661
239	0x3cd1acb4	0.025595047
240	0x3de83520	0.11338258
241	0xbd31672c	-0.043311283
242	0x3d0bd77f	0.03414106
243	0xbd8e06e0	-0.06934905
244	0x3d8b8b7b	0.06813713
245	0xbd6e8e74	-0.058241323
246	0x3d81b270	0.063328624
247	0x3d0f0cd7	0.034924354
248	0xb968dac0	-0.00022206735
249	0xbd2600f8	-0.040528268
250	0x3dbc1464	0.09183577
251	0x3dd2f7c7	0.10301166
252	0x3ce269b9	0.027638303
253	0xbd23bfdb	-0.03997789
254	0x3de7d16c	0.11319241
255	0xbd0e23b8	-0.034702033

sequential_8/dense_25/MatMul f4 [32, 64]
0	0x3dae3a28	0.08507186
1	0xbd2659c0	-0.040612936
2	0x3e0a0e0c	0.13481921
3	0x3d83fa30	0.06444204
4	0x3e475a40	0.19468021
5	0xbd000900	-0.031258583
6	0xbe1fe7d0	-0.15615773
7	0xbe3e3bd8	-0.18577516
8	0x3e57e9f0	0.21085334
9	0xbd254bd0	-0.040355504
10	0xbc829460	-0.015939891
11	0xbe4660d8	-0.1937288
12	0xbe69eed0	-0.22845006
13	0xbdc95f80	-0.09832668
14	0xbe503e04	-0.20336157
15	0xbd1a6110	-0.037690222
16	0xbe66af58	-0.22527826
17	0xbdeb6ac8	-0.11494976
18	0xbe165d90	-0.14684129
19	0x3e1c2710	0.15249276
20	0x3d902650	0.070385575
21	0x3e15696c	0.14590997
22	0xbe0ffecc	-0.14062041
23	0xbe317b1c	-0.17332119
24	0xbd8c8c98	-0.06862754
25	0xbe0344cc	-0.12819213
26	0x3cd81e40	0.026381612
27	0x3d943888	0.07237345
28	0x3e3ca664	0.18422848
29	0xbdb21988	-0.08696276
30	0x3e1966a4	0.1498056
31	0x3e620a7c	0.22074312
32	0xbda45480	-0.080239296
33	0xbd80ce08	-0.06289297
34	0x3e3cc968	0.18436205
35	0xbe215ae4	-0.15757328
36	0xbe0a68c8	-0.13516533
37	0xbe2f7a28	-0.17136443
38	0x3c9fc3c0	0.01950252
39	0xbdee2290	-0.11627686
40	0xbe1e5160	-0.1546073
41	0xbd2a8680	-0.041632175
42	0xbe193c84	-0.14964491
43	0x3d4d2370	0.050082624
44	0x3e17ca58	0.14823282
45	0xbdf365b0	-0.1188463
46	0xbe1f9970	-0.15585876
47	0x3d9a0ad0	0.075215936
48	0xbd8d6298	-0.06903571
49	0x3e43a4f4	0.19105893
50	0x3e54e9fc	0.20792383
51	0xbe38b3bc	-0.18037313
52	0xbe08170c	-0.13290042
53	0xbe5c8a1c	-0.2153706
54	0x3b944d00	0.0045257807
55	0xbda5eae8	-0.081014454
56	0xbdffc898	-0.12489432
57	0xbe5cdbd0	-0.21568227
58	0x3e35a2e4	0.17737919
59	0xbd463fb0	-0.04840058
60	0xbe7ac8b4	-0.24490625
61	0xbe419cbc	-0.18907446
62	0x3dcaf6c8	0.09910351
63	0xbe392f30	-0.18084407
64	0xbe427bce	-0.1899254
65	0x3dc3060e	0.09522639
66	0x3e0cfa16	0.13767275
67	0x3b850643	0.0040595843
68	0xbe5778e4	-0.2104221
69	0xbe31c48a	-0.1736013
70	0xbe7344f4	-0.23756772
71	0xbd2d0ed1	-0.04225046
72	0x3db54050	0.08850157
73	0xbe003d24	-0.12523323
74	0x3dd3f636	0.103496954
75	0xbde0a82f	-0.109695785
76	0x3bd017ea	0.006350507
77	0xbe718fff	-0.23590086
78	0xbd52c900	-0.05146122
79	0xbe1c710c	-0.15277499
80	0xbe2dc7bc	-0.16970724
81	0x3d9c385b	0.076279365
82	0xbd1795e2	-0.037008174
83	0xbe7bfde2	-0.24608567
84	0xbe7968b8	-0.24356353
85	0xbcc6409d	-0.024200732
86	0xbe379f20	-0.17931795
87	0xbd020fb0	-0.031753242
88	0xbd3c7ea9	-0.04601923
89	0xbd0b6a26	-0.034036778
90	0x3e12d7a8	0.14340079
91	0xbd9f7cbd	-0.07787464
92	0x3e190f8c	0.14947337
93	0x3e747502	0.2387276
94	0x3dacca88	0.08437067
95	0xbe513b6a	-0.20432821
96	0x3e354d27	0.17705213
97	0xbe3e16a0	-0.18563318
98	0xbe7c49b5	-0.24637492
99	0xbdc60dd2	-0.09670605
100	0x3e08a403	0.13343816
101	0xbd7f7078	-0.062363118
102	0xbd929966	-0.07158165
103	0xbc8e7bd0	-0.017393023
104	0x3e27b47f	0.16377448
105	0x3e329d44	0.17442805
106	0x3dc0a0b1	0.094056495
107	0xbe72a025	-0.23693903
108	0xbe04a870	-0.12954879
109	0x3e5f3ca1	0.21800472
110	0xbe641c80	-0.22276497
111	0x3e233d08	0.1594125
112	0x3d4da377	0.05020472
113	0x3d020f75	0.031753022
114	0xbd88284c	-0.06648311
115	0xbda9d8b9	-0.0829329
116	0xbdf0a932	-0.117510214
117	0x3e08bf70	0.13354278
118	0xbe44a7e4	-0.1920467
119	0x3dc2eb97	0.095175914
120	0xbde457f8	-0.11149591
121	0xbd80841a	-0.062751964
122	0x3d78a3c0	0.06070304
123	0x3dd985f2	0.10621251
124	0xbda65018	-0.081207454
125	0xbd8c71bf	-0.06857633
126	0x3e29ed60	0.16594458
127	0xbd143420	-0.036182523
128	0xbe080134	-0.13281709
129	0x3c95e4a0	0.018297493
130	0xbdd59120	-0.10428071
131	0xbe4790a8	-0.19488776
132	0x3e3cdf90	0.18444657
133	0xbe42cd40	-0.19023609
134	0xbd5ac2d0	-0.053408444
135	0x3d848790	0.06471169
136	0xbe15473c	-0.14577955
137	0x3e1da6cc	0.15395659
138	0x3e05dcf0	0.13072562
139	0xbda8e628	-0.08247024
140	0xbde0de68	-0.109799206
141	0x3e23a7c8	0.15981972
142	0x3de78c50	0.11306059
143	0xbce9f520	-0.028559268
144	0x3e189570	0.14900756
145	0xbc968000	-0.018371582
146	0xbe55d738	-0.2088288
147	0xbe783824	-0.24240166
148	0xbe531264	-0.20612484
149	0xbd9c08b0	-0.076188445
150	0x3d532a40	0.051553965
151	0xbcf88000	-0.030334473
152	0x3e64a15c	0.22327179
153	0x3c46d640	0.012136042
154	0xbe536b10	-0.2064631
155	0xbd2d4ba0	-0.04230845
156	0x3e0527c0	0.13003445
157	0xbe40093c	-0.18753523
158	0xbd8c69e0	-0.068561316
159	0xbd5bdf60	-0.053679824
160	0x3d234c90	0.039867938
161	0x3de127f0	0.109939456
162	0xbd770200	-0.06030464
163	0xbe60c304	-0.21949393
164	0xbd8b6720	-0.06806779
165	0xbdb8eb40	-0.090292454
166	0xbe300fd4	-0.17193538
167	0x3d86e7f8	0.06587213
168	0xbd8b7ed0	-0.06811297
169	0x3e58f0c0	0.21185589
170	0xbc436540	-0.011925995
171	0xbdc8c320	-0.09802842
172	0x381c8000	3.7312508e-05
173	0xbe087590	-0.13326097
174	0xbe6a5f8c	-0.2288801
175	0xbe66cbf4	-0.2253874
176	0x3e2175d4	0.15767604
177	0xbe42d564	-0.19026715
178	0x3dfe1008	0.124054015
179	0x3e046f40	0.12933064
180	0x3dbaf0d8	0.091279685
181	0xbdbe5bc0	-0.09294844
182	0xbe6cc9d8	-0.23123872
183	0xbe6ab4c4	-0.22920519
184	0x3e11e4d4	0.14247447
185	0xbe51efdc	-0.20501655
186	0xbe089240	-0.1333704
187	0xbe71cbec	-0.23612946
188	0xbd6bc1f0	-0.057558
189	0xbdb9ffc0	-0.090819836
190	0xbdb65500	-0.08902931
191	0xbd200d20	-0.039075017
192	0xbe42bfd8	-0.19018495
193	0x3db909bc	0.0903506
194	0x3e2cea92	0.16886356
195	0xbe8ddf7b	-0.27709565
196	0xbd74cb80	-0.059764385
197	0x3c94b236	0.018151384
198	0xbcc82e00	-0.024435997
199	0x3e77fd90	0.2421782
200	0xbdd53950	-0.10411322
201	0xbd5a11c6	-0.053239606
202	0x3e252535	0.16127475
203	0x3e44cbca	0.19218364
204	0x3e5941a0	0.2121644
205	0x3d89415a	0.06701918
206	0x3e3918d0	0.18075871
207	0xbe334240	-0.17505741
208	0xbe64369c	-0.22286457
209	0xbd72ec05	-0.059307117
210	0xbe5cb973	-0.21555118
211	0x3eaea3dc	0.3410939
212	0x3d1e4df0	0.038648546
213	0x3d9b6cd2	0.07589115
214	0x3e950f3e	0.2911319
215	0x3e137864	0.14401394
216	0xbde3647f	-0.111031525
217	0x3e83cd4c	0.25742567
218	0x3c9ee7c0	0.019397616
219	0x3ce2dc2e	0.02769288
220	0xbe4b7230	-0.19867778
221	0x3e657052	0.22406128
222	0x3c54bc80	0.012984395
223	0xbdf761bc	-0.12079188
224	0xbdcf2b45	-0.10115675
225	0x3e225ff8	0.15856922
226	0x3e0d7466	0.13813934
227	0xbe1fa313	-0.15589552
228	0x3ba7fd29	0.0051266146
229	0x3e4c1de0	0.19933271
230	0xbc456390	-0.012047663
231	0x3dac6929	0.08418495
232	0x3e404aef	0.18778585
233	0xbe448378	-0.19190776
234	0x3d9b5726	0.075849816
235	0x3dd184fd	0.102304436
236	0x3dd19468	0.10233384
237	0x3ce438d4	0.027859129
238	0xbdf71e78	-0.12066358
239	0xbe62b20c	-0.22138232
240	0xbe5c4478	-0.21510494
241	0xbeb0d717	-0.345391
242	0x3e28240d	0.16420002
243	0xbde4f52e	-0.11179577
244	0x3dc4fa48	0.0961805
245	0x3e9d2837	0.30694744
246	0x3d21e480	0.039524555
247	0xbe7f9753	-0.2496007
248	0x3dbaf690	0.09129059
249	0xbdc5c74b	-0.09657153
250	0x3e5fded8	0.21862352
251	0x3aa2db37	0.001242495
252	0x3e0d99f4	0.1382826
253	0x3af5e19b	0.0018759252
254	0xbe0ed3b4	-0.13947946
255	0x3e3beacc	0.18351287

sequential_8/dense_26/MatMul f4 [16, 32]
0	0x3e33f7da	0.17575017
1	0xbe5d3301	-0.21601488
2	0x3ca79350	0.020455986
3	0x3e330463	0.17482142
4	0xbed73a1a	-0.42036515
5	0xbe2bf14a	-0.16791263
6	0x3c3ce2ad	0.011528653
7	0xbe185e3e	-0.148797
8	0xbc6901da	-0.014221633
9	0xbeaa8c7f	-0.33310315
10	0x3e41754d	0.18892403
11	0x3e84c741	0.2593327
12	0xbeadadc8	-0.33921647
13	0x3de0e65c	0.109814376
14	0xbe82f531	-0.2557769
15	0xbe934371	-0.2876239
16	0xbe942ee0	-0.28942013
17	0xbe5a7f8f	-0.21337722
18	0x3eb8ff00	0.3613205
19	0x3ed2a726	0.4114315
20	0x3e9934f7	0.2992322
21	0x3dd08a19	0.1018259
22	0x3eafbdf1	0.343246
23	0x3d2905f7	0.041265454
24	0x3eb2e0da	0.34937173
25	0xbeb21d24	-0.34787858
26	0xbdc18236	-0.09448664
27	0x3dc8bab3	0.09801235
28	0x3d3a41e6	0.045473002
29	0xbe8cacaa	-0.27475482
30	0x3d0df473	0.034656953
31	0xbd8cfeb4	-0.06884518
32	0x3e831275	0.2560002
33	0x3e909ac0	0.28243065
34	0xbc85fdc0	-0.016356349
35	0xbec07642	-0.37590224
36	0x3e8642a2	0.26222712
37	0x3e0656f1	0.13119103
38	0x3eda9610	0.42692614
39	0xbdbd83d6	-0.09253661
40	0xbea12947	-0.31476805
41	0xbe190ee6	-0.1494709
42	0xbe8fce3c	-0.28087032
43	0xbe5943a4	-0.21217209
44	0x3e13d17c	0.1443538
45	0x3d802eb4	0.06258908
46	0xbe4d5511	-0.20051982
47	0x3d76a0b0	0.060211837
48	0xbeb9b785	-0.36272827
49	0x3f045f9d	0.51708394
50	0x3dffb856	0.12486331
51	0xbee073bd	-0.438383
52	0xbd9f3e3b	-0.077755414
53	0x3e1f809b	0.15576403
54	0xbc0a6320	-0.008446485
55	0xbe1c9289	-0.15290274
56	0xbea2902e	-0.31750625
57	0x3e3b7624	0.18306786
58	0xbe3db705	-0.18526848
59	0x3e184e23	0.14873557
60	0x3e03336d	0.12812586
61	0xbd6ee204	-0.058321014
62	0x3e6bf17d	0.23041339
63	0xbea81d91	-0.32835057
64	0x3cb95a10	0.022625953
65	0xbe69e9ea	-0.22843137
66	0xbea93f6d	-0.33056203
67	0xbe9981d5	-0.29981866
68	0x3ece3753	0.40276584
69	0xbcd1cb00	-0.025609493
70	0x3e12abf8	0.14323413
71	0xbe7ee1e7	-0.24890862
72	0xbe1592b7	-0.14606749
73	0xbe7f9d3d	-0.24962325
74	0xbe579031	-0.21051098
75	0xbeeedb2e	-0.46651596
76	0x3e8d1151	0.27552274
77	0xbdce4360	-0.100714445
78	0x3ea6edf2	0.32603413
79	0xbea1e461	-0.31619552
80	0xbe93c3d1	-0.28860334
81	0x3f2128af	0.62952703
82	0xbe979a2d	-0.29609814
83	0x3e654208	0.2238847
84	0x3e465e22	0.19371846
85	0x3d8dbb8c	0.06920537
86	0xbd2d4c68	-0.042309195
87	0xbe18450e	-0.14870092
88	0xbeb2ea49	-0.3494437
89	0xbdcbe794	-0.099562794
90	0xbe7bbaff	-0.24583052
91	0x3dee67c7	0.11640888
92	0x3eae09dd	0.339919
93	0xbf12fc9b	-0.57416695
94	0xbea07c30	-0.31344748
95	0x3e9ccb73	0.3062397
96	0xbe974a8c	-0.29549062
97	0xbead6b58	-0.3387096
98	0x3ac68500	0.0015145838
99	0x3cda8a20	0.026677191
100	0x3d3d5308	0.046221763
101	0xbe98c3b3	-0.29836807
102	0xbe0f14ed	-0.13972826
103	0x3e5d542e	0.21614143
104	0x3b3dee00	0.002898097
105	0xbe2bd2f2	-0.16779688
106	0x3e66bdf6	0.22533402
107	0xbeb4f11e	-0.35340208
108	0xbcdc2740	-0.026874185
109	0x3c96dd20	0.018415987
110	0xbeacf2f9	-0.33779123
111	0xbe4edae5	-0.20200689
112	0xbd46cc58	-0.04853472
113	0xbe61b72d	-0.22042532
114	0x3e630812	0.22171047
115	0xbe4aa4c1	-0.19789411
116	0x3e49bff2	0.19702128
117	0xbe8e9a74	-0.27852213
118	0xbe836be0	-0.2566824
119	0xbdceb520	-0.100931406
120	0xbe8029f1	-0.25032
121	0x3eb2dcfd	0.34934226
122	0xbaaf9000	-0.0013394356
123	0xbdd175d0	-0.10227549
124	0x3e0b8e5e	0.13628528
125	0x3de42704	0.11140254
126	0xbea0bbc2	-0.31393248
127	0xbe09cbf7	-0.13456713
128	0xbe9e02ac	-0.30861413
129	0x3d9bd84d	0.076096155
130	0x3eaaa9e5	0.33332744
131	0xbe8bb99b	-0.27290043
132	0xbe89a51f	-0.2688379
133	0xbe9bd12a	-0.30433017
134	0xbef53f7e	-0.47900003
135	0x3e804d16	0.25058812
136	0xbea254fb	-0.3170546
137	0xbe3f90ea	-0.18707624
138	0xbe789b32	-0.24277952
139	0x3e2a02e2	0.16602662
140	0xbd9a4cb4	-0.07534161
141	0xbbf699c0	-0.0075256526
142	0x3df57003	0.11984255
143	0x3eb1ce0d	0.34727517
144	0xbe8329a6	-0.25617713
145	0x3edcec7e	0.4314918
146	0x3f052f59	0.5202537
147	0x3ef8894b	0.48542246
148	0x3ef1bbe3	0.4721366
149	0xbe455564	-0.19270855
150	0xbd8935b4	-0.06699696
151	0x3e9c15b8	0.3048532
152	0x3cd687a1	0.02618772
153	0xbea610cd	-0.32434693
154	0xbde67af7	-0.112539224
155	0x3ea0ad8c	0.31382406
156	0x3df06eb0	0.11739862
157	0xbe8a16fa	-0.26970655
158	0xbebf6c62	-0.37387377
159	0xbe865cde	-0.26242727
160	0xbe21f682	-0.15816692
161	0x3db28ce2	0.087182775
162	0x3d0c1be8	0.0342063
163	0x3e1b86ab	0.1518809
164	0x3d840392	0.064459935
165	0xbe83bc6e	-0.25729698
166	0x3a055e9d	0.0005087646
167	0xbe645ca9	-0.22300972
168	0xbea8dff1	-0.32983354
169	0xbd8fa122	-0.070131555
170	0x3e5260f9	0.20544805
171	0xbe889c99	-0.26681975
172	0xbea4ab33	-0.32161865
173	0x3cef6ce0	0.02922672
174	0x3dc9a304	0.09845546
175	0xbeb244e4	-0.34818184
176	0x3f10342a	0.56329596
177	0x3f168628	0.58798456
178	0x3ec84a9f	0.3911943
179	0xbf22b4a4	-0.63556886
180	0xbe6eb8ca	-0.23312679
181	0xbeac36ff	-0.3363571
182	0xbe54ab9f	-0.20768593
183	0x3e109848	0.1412059
184	0xbda05f34	-0.078306586
185	0x3da1f3c7	0.07907825
186	0x3cdfca70	0.02731821
187	0x3d16d1f8	0.036821336
188	0xbcd2fa57	-0.025754137
189	0x3f050163	0.5195524
190	0x3ebc8159	0.36817434
191	0xbdd3752c	-0.10325083
192	0xbdebc6fc	-0.11512563
193	0x3dd5ba02	0.10435869
194	0x3da139f4	0.07872382
195	0x3e887c26	0.26657218
196	0x3eff13ae	0.49819702
197	0xbe48fde0	-0.19628096
198	0x3ed0be15	0.4077002
199	0xbe56a643	-0.20961861
200	0x3f387f0d	0.72068864
201	0x3db6ce18	0.08926028
202	0x3cf1ef5f	0.029533086
203	0xbda6dbca	-0.0814739
204	0xbd620168	-0.055177122
205	0xbe1653d8	-0.14680421
206	0xbe8386dd	-0.2568883
207	0xbe92d577	-0.28678486
208	0xbf06ffd2	-0.527341
209	0x3e9269db	0.28596386
210	0x3ec76dc1	0.38950923
211	0x3d867b8f	0.06566536
212	0x3e80680a	0.25079376
213	0xbe9c37da	-0.3051136
214	0x3e17905e	0.14801165
215	0xbe030528	-0.12794936
216	0xbd49fffa	-0.049316384
217	0xbe59e19f	-0.21277474
218	0x3e85295c	0.26008117
219	0x3db89d89	0.090144224
220	0xbe9b2ce5	-0.3030769
221	0x3d34516d	0.044022966
222	0x3d868e0f	0.06570064
223	0x3e534a06	0.20633706
224	0x3b4b8c00	0.0031058788
225	0xbe026127	-0.12732373
226	0x3e9414f5	0.2892224
227	0x3ed07420	0.40713596
228	0x3d6c6e76	0.05772253
229	0x3e12f224	0.14350182
230	0x3e665fce	0.22497484
231	0x3e2462e4	0.16053349
232	0x3f20734f	0.62675947
233	0x3da40a29	0.080097504
234	0xbe7a6b1e	-0.24454924
235	0x3ee4b6f1	0.44670823
236	0x3e9b4d03	0.30332193
237	0x3da85bf8	0.08220667
238	0x3e9b2370	0.30300474
239	0xbe779e99	-0.24181594
240	0x3ea61461	0.32437423
241	0xbd7335c2	-0.05937744
242	0xbf1194cf	-0.5686769
243	0x3e9aa78f	0.30205962
244	0x3e899ff0	0.26879835
245	0xbdb8288b	-0.08992108
246	0x3dd5c6c0	0.10438299
247	0xbe886fdd	-0.26647845
248	0xbe359e81	-0.17736246
249	0x3ea63d73	0.32468757
250	0x3e9cd55c	0.3063153
251	0x3e8cc019	0.2749031
252	0x3e57447d	0.2102222
253	0x3e33b92f	0.1755111
254	0xbdb1707b	-0.08664032
255	0xbba69e00	-0.005084753

sequential_8/dense_27/MatMul f4 [6, 16]
0	0x3dad02e9	0.08447821
1	0xbf7692b0	-0.9631758
2	0xbe8471da	-0.25868112
3	0x3eebe8cc	0.46076047
4	0x3f4c6278	0.7983775
5	0xbf34776a	-0.7049471
6	0x3dfded2a	0.12398751
7	0x3f1d5cc4	0.61469674
8	0xbe407aa4	-0.18796784
9	0xbf2e37fc	-0.68054175
10	0xbe5208d0	-0.20511174
11	0x3efa90cc	0.48938596
12	0x3ee37e2b	0.44432196
13	0x3ee89409	0.45425442
14	0x3dcc6f6b	0.09982189
15	0xbe49bd64	-0.19701153
16	0xbecb8fd3	-0.39758167
17	0x3da7668a	0.08173855
18	0x3ed6d949	0.4196265
19	0x3ed131aa	0.40858203
20	0x3f506a98	0.8141265
21	0x3f12bfda	0.5732399
22	0xbf4747a6	-0.778437
23	0xbf6ff8f0	-0.93739223
24	0x3e8a6472	0.2702976
25	0xbf033875	-0.5125802
26	0x3f24c7f1	0.64367586
27	0x3e06d494	0.1316703
28	0xbc65f648	-0.014035769
29	0xbe1370dc	-0.14398521
30	0xbdadd1cd	-0.08487282
31	0x3f108a5e	0.5646113
32	0xbecebdea	-0.40379268
33	0xbde46fbc	-0.11154124
34	0xbcae9a58	-0.021313831
35	0xbb04c500	-0.0020259023
36	0xbee26161	-0.4421492
37	0x3ed577fc	0.41693103
38	0x3ee6d615	0.45085207
39	0x3ef71beb	0.48263487
40	0x3e896178	0.26832175
41	0xbe0d2bbb	-0.13786213
42	0xbf00f3b2	-0.5037185
43	0xbe933182	-0.2874871
44	0xbf0d3fce	-0.55175483
45	0xbe6e1565	-0.23250349
46	0xbe5d6887	-0.21621905
47	0x3ebaed73	0.36509284
48	0xbf01489c	-0.5050142
49	0xbef1a654	-0.4719721
50	0xbf241712	-0.640977
51	0x3da46c80	0.08028507
52	0xbf23a9f4	-0.639312
53	0x3ec849cc	0.39118803
54	0xbf12feeb	-0.57420224
55	0x3ebf1415	0.3732001
56	0xbedf0909	-0.4356158
57	0xbe7958ea	-0.24350324
58	0x3f157db8	0.58394957
59	0x3e973c88	0.2953837
60	0x3e01339b	0.12617342
61	0x3f3ccf86	0.73754156
62	0xbd08f576	-0.033437215
63	0x3f774607	0.9659123
64	0xbf093abe	-0.5360526
65	0x3c913a05	0.017727861
66	0x3f3a16d4	0.7269108
67	0xbe9a94b1	-0.30191568
68	0x3e4ece5a	0.20195904
69	0xbf39575d	-0.7239893
70	0x3ef8124d	0.48451462
71	0x3e9d7ed9	0.3076084
72	0x3db3b3e8	0.08774549
73	0x3ea0f547	0.31437132
74	0x3d7c2b12	0.061564513
75	0x3e1b8e1c	0.15190929
76	0x3efa0016	0.4882819
77	0xbf4acd0d	-0.7921913
78	0xbe9b2ad5	-0.30306116
79	0x3cb1c231	0.021699043
80	0xbf14e5e6	-0.581633
81	0xbee1fec0	-0.4413967
82	0xbf0eecbe	-0.5582999
83	0xbdd615cc	-0.10453376
84	0x3ece0424	0.40237534
85	0x3f3364d5	0.7007573
86	0x3f2cd086	0.6750568
87	0xbef18915	-0.47174898
88	0x3d4d5990	0.05013424
89	0xbe99ebcd	-0.30062714
90	0xbd4acfa2	-0.04951442
91	0x3ebf4494	0.37357008
92	0x3ea40299	0.32033232
93	0xbd36195e	-0.044457786
94	0xbedf418c	-0.43604696
95	0xbf35b608	-0.7098088
